plugins/AMP-Net_TIP/results/AMP_Net_K/4/6/best_model.pkl (torch_old, 851472 bytes, 44 tensors)

A f4 [44, 1089]
00000000: c4fb c8bc 7f1d 45bb ff66 da3c 94ad 183a
00000010: bba2 62bc 7f55 cbbc a8d1 e23c 8b6b fa3c
00000020: 2503 a63c a908 d0bb 11ce 5b3d 051f 823c
00000030: 5c7c 4e3b b748 36bd 76bf 493c 4802 483c
00000040: bd97 debb c5a3 cc3c 2309 ae3d 3af6 2dbd
00000050: b29e 013d 44e3 dbbc 26d8 303d 1c08 a1bb
00000060: 72f7 763c 7daa ec3c 02d7 e739 2d04 aa3c
00000070: 3567 65bc 28ca 6d3c 1187 fe3b ee84 24bd
00000080: 74ed d03c 3e47 d7bc a317 19bc 6a6d 9fbc
00000090: 53b5 bebc d1f9 c1bb 1b12 423c 0370 49bd
000000a0: eb45 4dbd 5f57 8a3c 5232 b83c 521b 26b8
000000b0: 3906 d1bc 396e 303c c8c5 193d 0044 743c
000000c0: 1f15 20bd 3974 683c 2e1f 253c 0e9d 99bc
000000d0: 7374 ab3c 7734 cebc c0bb 8ebc bad4 483d
000000e0: a59f b6bb 15c1 0fbc 3125 f93b 7400 23bc
000000f0: 3f40 9fbc 7d75 42bd 27a6 31bd 0cc7 33bd
00000100: f979 133d 623c 823c 4bf3 d53c c92f 533c
00000110: b895 d23c 5cb0 74bc e69e 6b3d abb8 993d
00000120: def8 6c3c e393 98bb 70b8 0cbd 1436 03bc
00000130: 224b 9d3c 6dac c0b9 2dca bb3c de8d 083d
00000140: acbb a1bb 4cdf 19bd 0495 b13b 9ae7 de3c
00000150: d5cb ca3c 4817 913b 0fb0 7abd 2e62 053a
00000160: 3d81 43bd d79b 1bbc a9ca 76bd 69f9 443b
00000170: 8c2e 6fbc 1185 fcbc fdac 17bd 2bba 59bd
00000180: c7e4 333d 75a9 0e3d 7dcd 883d 3882 713c
00000190: e254 fd3b bd3e 65bc 22c9 273d 1af9 bfbd
000001a0: f03e 8b3c d695 0abd b7eb cebb ed97 0b3b
000001b0: d6c8 d53c 0ccd 0fbc 8bc4 73bb 10cb 92bb
000001c0: 6dde e73c 2ea7 2ebc cb9c 093d c152 763d
000001d0: d4a4 873b 948d efbc 33f5 42bc 5997 d3bc
000001e0: c3c0 f8bc a495 8abd a1d6 38bc c0b1 6cbc
000001f0: 778b 9c3c 2830 8f3c d433 e93c 37d8 813d
00000200: 6eea 07bd 6e9f a9bc 1a68 fb3c b51e ba3c
00000210: 03b6 113d 414c ab3c ed4b 8e3c f9b5 a4bc
00000220: 5be2 08bd 3e37 f2bc f2a3 0bbc 721f dfbc
00000230: 6134 0a3d 4d5c d0bc 31a8 0dbd b9eb b93c
00000240: c552 47ba 5bcb 5dbd 4801 49bc 6d79 723c
00000250: 49ca 543d 48e4 983c 70cf 1e3c a853 3bbd
00000260: 1607 323d e670 903b f16c 56bd 0ea0 8cbd
00000270: ec8f b8bc da63 a43c ce37 ac3c 86c1 9fbc
00000280: dba4 75bc 5bce d2bc 83c9 89bc ed57 bebc
00000290: 67b2 9ebc b1c2 6fbd d9cb 0f3c 6ee6 613d
000002a0: 682a 09bd 0d1b c6bc 6d35 98bb ad92 dabc
000002b0: 81b7 e5ba 500b b63b 125a 8ebc 2eb9 2ebc
000002c0: 93b4 81bd 37fc bc3c eddb 133d 2b12 a2bc
000002d0: 181f 84bd 9f79 463c f687 3b3c 463c 32bd
000002e0: 6f4f 943c d7dc 203d 25f6 9bbd fc1c 083c
000002f0: ea48 83bb aa63 02bd e8b0 0abd 5cc0 76bc
00000300: e2d5 623c dcbf 333c 0837 7c3c ddab c73c
00000310: 628d 9fbb 3485 503d 2efb d8bc 2f6a 15bc
00000320: 8923 94bc dff9 13bd bcb2 95bc 4247 eaba
00000330: bf6c 4c3c 2d80 b5bc e8cb 00bd eba0 8c3d
00000340: 918a 35bd a45d 51bc cb47 d6ba 598b 633c
00000350: 66a6 123c 9b48 663d 9c60 0fbd 47eb 19bd
00000360: b967 c53c cb12 c63b e33a 84bd 4f08 643d
00000370: 4a0e aebb 779f a7bd 29a7 5c3d e641 cd3c
00000380: f3c7 0d3d 242d 2f3d 7661 8ebd 334e 47bd
00000390: b73f 273d b221 00bd c35e c93c 137c ed3c
000003a0: 8796 05bd 65eb 76bd 5f67 04bd 1bff c03c
000003b0: 2d15 af3c c27e 46bd 29a4 0cbc aa15 d0bc
000003c0: c50d c0bc 9fb4 fabc c565 3f3c 495f 83bc
000003d0: ed4d f13b 6ed4 993c c090 c33b 8870 68bd
000003e0: 81c7 c3bc 2f97 b53c 5779 a93c d61f 293d
000003f0: 84f5 febb 1de8 82bc c00a 79bc 4f6e 443d
-0.024534114 -0.0030077395 0.02666044 0.0005824205 -0.013832743 -0.024821041 0.027687863 0.030568859
0.020265171 -0.0063486886 0.053663317 0.015883932 0.003150723 -0.04450294 0.012313714 0.012207575
-0.006792991 0.024980435 0.084978364 -0.042471148 0.031645484 -0.026841767 0.043174885 -0.004914297
0.015073644 0.028889889 0.00044219947 0.020753944 -0.014001657 0.01451353 0.007767566 -0.040165834
0.025503851 -0.026279088 -0.009344014 -0.019461352 -0.023279822 -0.005919673 0.011845137 -0.04917909
-0.050115507 0.016887365 0.022484932 -3.9602928e-05 -0.025515663 0.010768467 0.037542135 0.014908791
-0.039082643 0.014187866 0.010078235 -0.018751647 0.02092955 -0.025171502 -0.01742351 0.049030997
-0.0055732303 -0.008774062 0.0076033105 -0.0099488385 -0.019439815 -0.047475327 -0.043371346 -0.043890998
0.036004994 0.015897933 0.026116988 0.012889811 0.025706157 -0.0149346255 0.057524584 0.07505926
0.014463631 -0.0046563013 -0.03435558 -0.008008499 0.019200865 -0.0003674956 0.022923553 0.03333842
-0.0049357023 -0.037566468 0.0054193754 0.027210046 0.024755398 0.004427824 -0.06120306 0.0005088177
-0.047730673 -0.009497604 -0.060251866 0.0030055887 -0.0145985 -0.03082517 -0.03703021 -0.05315606
0.04391935 0.034829576 0.06679819 0.014740519 0.007731066 -0.013992009 0.0409633 -0.09373684
0.016997784 -0.0338343 -0.0063147205 0.0021300272 0.026096743 -0.008776914 -0.0037196006 -0.0044797733
0.028304303 -0.010659976 0.033596795 0.060137514 0.004139522 -0.029242314 -0.01189928 -0.025829004
-0.030365353 -0.06766823 -0.01128164 -0.014446676 0.01910947 0.017479017 0.028467096 0.06340068
-0.033182554 -0.020705905 0.030689288 0.02271972 0.03557397 0.020910384 0.017370189 -0.020106303
-0.033418994 -0.029567357 -0.008522974 -0.027236674 0.03374136 -0.025434637 -0.034584228 0.02269541
-0.0007603581 -0.054149013 -0.012268372 0.014799458 0.051950727 0.01866354 0.009693012 -0.045734078
0.04346379 0.00440799 -0.05234999 -0.068664655 -0.022529565 0.020067144 0.021022703 -0.019501459
-0.014992918 -0.025733164 -0.016819721 -0.023235286 -0.019372178 -0.05853528 0.008776628 0.055151395
-0.033487707 -0.02418282 -0.0046450407 -0.026681269 -0.0017526002 0.005555548 -0.017376933 -0.010664267
-0.0633327 0.023069484 0.03609841 -0.019784054 -0.06451243 0.012113958 0.01144599 -0.043514512
0.018104283 0.03927311 -0.07615308 0.008307692 -0.004006495 -0.03183333 -0.033860117 -0.0150605105
0.013844939 0.010971036 0.01539398 0.024373943 -0.004869149 0.050908282 -0.02648696 -0.009119554
-0.01808335 -0.036126968 -0.018273704 -0.001787402 0.012477099 -0.022155846 -0.03144446 0.0686663
-0.0443216 -0.012778673 -0.00163483 0.013888204 0.008950805 0.056221586 -0.035004243 -0.037577894
0.02409731 0.0060447208 -0.06456544 0.055671986 -0.005311762 -0.081847124 0.053870354 0.025055837
0.034614515 0.04276766 -0.06952183 -0.04865856 0.040832248 -0.031282134 0.024581319 0.028989827
-0.032614257 -0.060283083 -0.032325145 0.023559144 0.021372402 -0.04846073 -0.008584061 -0.025400955
-0.023444066 -0.030603705 0.011681979 -0.016036646 0.007364026 0.018778052 0.0059681833 -0.056747943
-0.023898842 0.022166817 0.020687742 0.041290127 -0.0077807326 -0.01597982 -0.015200317 0.04795676

Q f4 [1089, 44]
00000000: 02e2 723d 91e4 a73d bc14 5fbc aeea 42be
00000010: e515 c6bc 6a89 8abc 3379 94bd 673c 163d
00000020: 7a0d 153d 30d1 353e 5d4d a73c 02d0 c0bc
00000030: 41e9 033e 4f1d 26bd 9675 82bc b378 d5bc
00000040: e0c7 cabc 5075 52bc 98f4 b0bc 233e e43d
00000050: 7421 913d b9e6 bc3d 2d22 163d eb93 153d
00000060: cb79 9abd 20fc ea3d c9fd ae3d 24c0 a83d
00000070: b481 fb3b b08e 37bb a6fe 63bd 5e8b ee3d
00000080: 90a8 5e3c ca6b 0ebc 14c6 583b ed0f 5d3e
00000090: bbd5 05bc 10d1 393d 6f99 d3bb bc1b 43bc
000000a0: f52f 3fbe a3ce 82bd b27c 6d3d eac1 1cbd
000000b0: b8da 58bd 6a20 ab3d e5d6 5cbd 3c3f cfbc
000000c0: de12 0abe 3ae1 483d 3443 5abd 8123 a43d
000000d0: 454d acbd 3b65 063e 24a3 153d 6cd1 82bd
000000e0: db2e de3d 15b9 80bd e999 1bbc 6f57 c83c
000000f0: ba42 06bc 5e69 7e3c 135d 6fbc d9e1 383d
00000100: 8390 283c 9c20 153e 5a77 d53c 27ac f53a
00000110: b80d ab3c 4497 923d 06f5 e43c f446 f23d
00000120: 65c9 c63c a5d5 e6bc 67d7 0cbd b0df 103d
00000130: 3c17 a7bc 81bc 0abd 30a4 cd3c b6c3 103e
00000140: ea5a e53c c7c9 d7ba 5cd4 5ebc 2160 31bd
00000150: c263 80bd 6c5a 29be a3b3 e8bc 3553 b6bd
00000160: 9d94 1c3d 6088 363b 22a8 9ebc 6d8c 1b3e
00000170: 250f e2bd 6160 f03c 1318 243d 8883 003d
00000180: 880b 413b 92b4 ac3d ec15 0c3c 03d5 96bd
00000190: 7fc5 653d 41e5 af3c a5a3 ad3c 3649 bb3c
000001a0: d6d6 76bd a6fb 39bd 1ea6 8bbc 0757 193d
000001b0: 7171 9dbd f96e b73d b484 663c 1bf6 73bd
000001c0: 81f9 7e3d 47d3 b43d c09f 2d3d 21df 073e
000001d0: 0ba4 9a3d 20f1 00bd 4811 df3a 404b fe3d
000001e0: 9b6e 1cbe cb0a 29bd 2396 bebd bd7c 243e
000001f0: 0059 9f3c 91a0 83bb 6e65 8a3d 4f72 2cbd
00000200: 86fb e9bd 8767 63bd c20a 39bd 0e83 1ebe
00000210: b202 a5bc 4c44 833d 9103 d9bc f9e3 a4bd
00000220: 2751 09bc b53d 583c e383 58bd ebbd 203d
00000230: e852 8f3c fbb2 a63d 1b8a 25bd 532f 08bd
00000240: 78a6 933d a841 1c3c 4830 00bc 2c1c 56bc
00000250: 8b1c d3bd e96c 2c3d c15e 7d3d ecbc 863d
00000260: f212 703d e1cb f23c 44a7 38bd 8195 1e3c
00000270: fdbf 7abd 101b 15bd 2f5a d1bc 42ac eb3d
00000280: dd08 21bd 5047 27bd 7857 1bbd b129 ac3d
00000290: 18df 99bc e6b1 3438 5af6 60bc 2e79 f23d
000002a0: 06ef c03d 38cc 973d 745d 4b3d 0303 12bd
000002b0: 5521 41be aa63 a7bd e8bf 65bc a932 df3c
000002c0: 4a7c 893c 6f5b 443c 3676 4ebd 5da9 61bd
000002d0: 8480 86bd 8f9e 08be 0f4d ecbc 88e9 db3c
000002e0: fec3 183e d062 b03c 6f72 08bc 1c30 4e3d
000002f0: ea03 e43d f71b 30bd 9e6a b8ba 4476 31bd
00000300: 50c6 17be 85e0 bebc e5c8 0bbe a33e 483d
00000310: d232 79bd 2e88 0ebc f279 0c3e 75a8 0f3e
00000320: 6beb 383d 7957 a33d 43b4 4c3b a9da 18bc
00000330: b17a a73b 4c45 ea3c d291 1dbc c452 483a
00000340: 30f0 c5bd e13a e63c fd03 003e a73d e83d
00000350: a4ab 34bd ee59 b6bc d775 d53d 2110 bcbb
00000360: fbd4 a4bd 9c12 c6bd 0a05 cbbc f8f8 17bc
00000370: 5c4b 3ebc 1160 0d3c 1bdc 85bc 8c0c 4ebd
00000380: 695c a1bb ab03 ba3d aa80 19bd 185f c23d
00000390: 004d 82bd 1778 8b3d 64eb 25bd 7d0f 86bc
000003a0: 8505 643c ad4a a7bc e78c 9b3c b9ab 3abc
000003b0: e07c c0bd 46b9 81bc 3bfd 553d 5272 8f3c
000003c0: f98d 10bd 9902 6b3c 076c 1fbd e3f9 dbbc
000003d0: 1ba6 6cbc 91fa 683c 999d 153d ed0b b53d
000003e0: cfef 213d 850f 1cbd dc1e d73d d1d0 693d
000003f0: 1b53 a0bd a952 b93c ecb1 72bb 80c6 d53d
0.05929757 0.081978925 -0.013615783 -0.19034836 -0.024180362 -0.016911227 -0.072496794 0.036678698
0.036389805 0.1775558 0.020422632 -0.023536686 0.12881948 -0.040555295 -0.01592521 -0.02605853
-0.024753511 -0.012845352 -0.021601006 0.11144664 0.07086459 0.09223694 0.036653686 0.03651802
-0.075427614 0.1147387 0.085444994 0.08239773 0.007675374 -0.0028008632 -0.055662774 0.11647676
0.013589993 -0.008692691 0.0033077048 0.21588106 -0.008168633 0.045365393 -0.0064574997 -0.011908468
-0.18670638 -0.06387069 0.057980247 -0.03827087 -0.05294296 0.08355792 -0.053915877 -0.025298707
-0.1348376 0.049042918 -0.053286746 0.08014584 -0.084131755 0.13124554 0.036532536 -0.063876
0.10848781 -0.062853016 -0.009497144 0.024455754 -0.00819462 0.015528051 -0.014609593 0.04513726
0.0102883605 0.1456322 0.026057888 0.0018743322 0.020880565 0.07157758 0.027948868 0.118299395
0.024265954 -0.028178046 -0.03438511 0.035369575 -0.020396821 -0.033871178 0.025102705 0.14137158
0.027997453 -0.0016463333 -0.013600435 -0.043304566 -0.06269027 -0.165384 -0.02840597 -0.08902589
0.038227666 0.0027852282 -0.019367281 0.15190287 -0.11038045 0.029342832 0.04006202 0.031375438
0.0029456336 0.084328786 0.008550148 -0.073648475 0.05609655 0.021471621 0.021196196 0.022862058
-0.060263477 -0.045406006 -0.017046984 0.03743651 -0.07687653 0.08956713 0.014069725 -0.059560876
0.062249664 0.088293605 0.042388678 0.1326871 0.0755082 -0.031479955 0.00170187 0.124166965
-0.15276568 -0.04127006 -0.0930598 0.16063209 0.019451618 -0.0040169437 0.067576274 -0.0421012
-0.114249274 -0.055518653 -0.045176275 -0.15479681 -0.020142887 0.06409511 -0.026490958 -0.08051295
-0.008381165 0.013198306 -0.052860152 0.03924362 0.017495587 0.081396066 -0.04041491 -0.033248257
0.07209486 0.009537138 -0.007824011 -0.01306824 -0.103081785 0.042096052 0.061857942 0.06579003
0.058611818 0.029638233 -0.045081392 0.009679199 -0.06121825 -0.036402762 -0.025555698 0.11507465
-0.039315093 -0.040839493 -0.037925214 0.084063895 -0.018783137 4.3081025e-05 -0.01373061 0.118395194
0.0942059 0.074119985 0.04964967 -0.035647403 -0.18860371 -0.08173306 -0.014022805 0.027245836
0.016782898 0.01198469 -0.050405703 -0.055093158 -0.06567481 -0.13341735 -0.028845338 0.026844755
0.14918515 0.021531492 -0.008328064 0.05033885 0.11133559 -0.04299542 -0.001406986 -0.043325678
-0.14821744 -0.023300419 -0.13650854 0.04888786 -0.06083948 -0.00869946 0.13718393 0.14029105
0.045146387 0.079756685 0.0031235374 -0.009329476 0.0051110615 0.028597496 -0.009617286 0.00076417276
-0.09664953 0.028104248 0.12501521 0.11339884 -0.044109 -0.022259679 0.10422867 -0.0057392274
-0.08048435 -0.09671518 -0.024782676 -0.009275667 -0.011614647 0.008628861 -0.016340306 -0.050304934
-0.004924346 0.09082731 -0.03747622 0.09490794 -0.06362343 0.06810015 -0.04050769 -0.016364807
0.013917332 -0.02042135 0.018988086 -0.011393481 -0.09398818 -0.015835416 0.052243453 0.017510567
-0.035291646 0.014343881 -0.038921382 -0.026852554 -0.0144438995 0.014219896 0.03652725 0.08840165
0.03953534 -0.038100738 0.10503933 0.05708391 -0.07828351 0.022622423 -0.003703232 0.104382515

denoiser_1.D.0.weight f4 [32, 1, 3, 3]
00000000: 5502 4e3e 6102 47be 9a91 04bf 4e68 7b3e
00000010: be87 7a3d b2c7 4b3e 3389 533c 40fc 8ebe
00000020: 2963 6dbe e3fb 32bc ac5b 7abd 017c bbbd
00000030: 6ea6 52be 7d17 28bd 6913 9e3d 913a 9b3e
00000040: 3e83 683e 09af d8bd a4ba d4bb 89f3 b6bd
00000050: 5904 89be dc38 923e 8242 ca3d 4dc5 fdbd
00000060: 1206 fb3e 3697 ecbe fe6e c23d a7f3 da3b
00000070: 8ead 7ebe e199 a93e 835e f63d c96c cd3e
00000080: 95ae c3bc ffa1 01bf c3d2 babe 7c39 85be
00000090: bb71 9c3e 7268 963e 072d 66be b217 1bbe
000000a0: 6024 163e 2f15 a4bd 00fb 0ebf e24b df3e
000000b0: 318f 0bbf 2408 353e 7c8b cabd f38a 16be
000000c0: 3a63 d3bd 7e72 bf3e 8a5c 293e 6e60 c13d
000000d0: 4d54 bc3e 8221 8e3e 2a2b 913d f137 53be
000000e0: 8101 94bc 6726 2ebe eff0 13be 2465 b2be
000000f0: 4856 8a3e 4ee0 7dbd 014e 063d 8248 96be
00000100: 58b2 143e 4479 653e 9bb3 a7be 25de 873e
00000110: 8d5e 853e b25b 75be f04f 3bbd ede8 c43c
00000120: d29d 623e 38cf 73be 58e1 b53c d198 933e
00000130: b611 173e a0de 71be 18de 843d 8aba bb3e
00000140: d1cd 2abe b2bb 483d fda3 7abe fd64 833d
00000150: b5e4 203e 2990 ac3d 1955 5fbe 7f20 bfbe
00000160: 938f 64be 0a1a b1be 7d9e bb3e 594a 363e
00000170: 532e 8b3e 6593 0ebf ef2e d1be 7c8c 5e3e
00000180: a9a4 903e ee6e a2be fdd3 313d 121f a9bd
00000190: 75bf f9be 11c6 70bc be05 e73d cff7 d03d
000001a0: 4ba4 15bf bf37 bcbe ef8c 8f3e f96c 3b3e
000001b0: fbaa 6cbe 50a6 03bf 33de 533e fd1f 9b3e
000001c0: 9750 4f3d 6350 e2be f4ec d8be 3576 083d
000001d0: 1829 bd3e 1fd5 8c3e 463f 13be 5d17 48be
000001e0: b957 e3bc b823 7bbd 6def 5ebe aeb8 4fbe
000001f0: cef7 0ebe c042 0e3e c62b 89be 28ab b13e
00000200: b63e c3be a3c0 a1be f47c 81bd 6a76 85be
00000210: 697a 3a3e 49d7 5bbe bbed a73d 3027 293e
00000220: 869d 1fbe b888 0bbf 54b5 dcbe f7d8 d43e
00000230: 8d59 3e3e 418d b6bd cfef 17bf 2818 823e
00000240: afee d03e 6677 9f3e 52f0 d93d 81ae 6337
00000250: 31f4 a03d d7f0 76be 7c0a 213e ee1a 58be
00000260: a86b aabe 3d63 883e 1938 bb3e f8d3 cc3e
00000270: 0d6a 8bbe f46c 973e a6dc 78be 0c81 8b3d
00000280: 6e6a 1abe ba58 d93d 66f1 b2be d8bc 88bc
00000290: c81b 123d fa41 b7bd 3f5c 7e3e e8a1 a1be
000002a0: 0941 af3e 0887 143e 8608 cd3c 46cf 1abe
000002b0: 5884 183d 2efe 3f3e 72bf b43d d6f1 1abe
000002c0: ca83 2ebe 166e 8b3e 1de7 5f3d 7fcb fe3e
000002d0: e525 1cbf b9fd 4cbe b9b8 03be 5c52 21bf
000002e0: c9d8 003f f5fe 91be f04e 5c3e 990e 643e
000002f0: 8868 e63e 4d21 bfbe f8e9 e6be 94fc d7bd
00000300: 7424 5a3e e1e7 0abe 28a4 883e 2451 aa3d
00000310: 987c e3bd 2ae1 11be aa20 913e f5d4 7ebe
00000320: e00c 953e 0140 c13e 3b39 fcbd 0765 2dbe
00000330: dc9c bd3e 9e42 80be 84ec 103e 77ee 22be
00000340: fd52 d63e 7a14 9c3e 8430 28be fdc2 a43e
00000350: 2f80 3e3e a759 473e 7666 1a3e 8de5 d3bd
00000360: 6b17 a9bb 2669 b93e 3916 003e 055e 85be
00000370: a7a5 4b3e 0100 82be 8d30 ad3e 9844 253e
00000380: 6024 1b3e 2f7d bfbe 49e7 b9bc 6c5d 6fbe
00000390: 50cb 9abe 750a 30bd 448d f63d 950c aabe
000003a0: 6d5c 1a3e 0014 86bd f737 02bf 6439 cfbe
000003b0: 4dcf 923e fdcd bcbe f619 6f3e 6540 9e3e
000003c0: 0d97 c4be a084 ebbe 4097 ac3e 5ab1 153d
000003d0: 1aae a03d 63dd 88bd 8ac4 7fbe 8ea7 47be
000003e0: 5766 52be 0101 a7be f637 89be 9a25 6abd
000003f0: a72e 383d 9bc8 5a3e 7dfb 573e 8117 443e
0.20118077 -0.19434501 -0.5178467 0.24551508 0.06116461 0.19900396 0.012911129 -0.27926826
-0.23182358 -0.010924312 -0.06112258 -0.09154511 -0.205713 -0.041038025 0.07718546 0.3031812
0.22706315 -0.1058026 -0.006491976 -0.089331694 -0.2676113 0.28559005 0.098759666 -0.12391148
0.4902807 -0.46209115 0.09493826 0.0066818777 -0.24870893 0.33125213 0.120297454 0.4012206
-0.023886958 -0.5063781 -0.36488923 -0.2602042 0.3055552 0.2937656 -0.22478114 -0.15145758
0.14662313 -0.08011853 -0.55851746 0.43612581 -0.5451537 0.17678887 -0.09889886 -0.14701442
-0.1032166 0.37392038 0.16539207 0.09442221 0.36783066 0.2775994 0.07088311 -0.20626809
-0.018067123 -0.17006837 -0.14447378 -0.3484279 0.27018952 -0.06198149 0.032789234 -0.29352194
0.14521158 0.2240954 -0.32754216 0.2653667 0.260487 -0.2396076 -0.04573053 0.024036849
0.22130516 -0.23809516 0.022202179 0.28827527 0.1475285 -0.23620081 0.064876735 0.36665756
-0.16680075 0.049007125 -0.24476619 0.06415746 0.15712245 0.08425934 -0.21809806 -0.3732948
-0.22320394 -0.3459018 0.36644354 0.17801799 0.2718378 -0.55693656 -0.4085612 0.21733278
0.28250626 -0.31725258 0.04341506 -0.08257879 -0.48778883 -0.01469566 0.11280392 0.10203516
-0.58453816 -0.3676128 0.2803721 0.18303289 -0.23112099 -0.5142565 0.20690231 0.30297843
0.050613966 -0.44201955 -0.4236828 0.033315856 0.36945415 0.27506348 -0.14379606 -0.19540162
-0.02775179 -0.06131336 -0.21771021 -0.20285293 -0.13961717 0.1389265 -0.2679121 0.34700894
-0.38133782 -0.31592283 -0.06322661 -0.26066905 0.18210758 -0.21468844 0.0819964 0.16518855
-0.15587434 -0.5450549 -0.43107092 0.4157178 0.18588848 -0.08913661 -0.59350294 0.25409055
0.408071 0.3114578 0.106415406 1.3570884e-05 0.07859076 -0.2411531 0.15726656 -0.21104023
-0.3328526 0.26638213 0.36566237 0.4000547 -0.27229348 0.29575312 -0.2430292 0.06811723
-0.15079662 0.106126264 -0.34949797 -0.01669161 0.035671026 -0.08948131 0.24839877 -0.31568837
0.34229305 0.14504635 0.025028478 -0.15118131 0.037235588 0.18749306 0.08825578 -0.15131316
-0.17042461 0.27232426 0.054663766 0.4976463 -0.6099532 -0.20018663 -0.12863435 -0.63016295
0.5033079 -0.2851483 0.21514487 0.22271194 0.45001626 -0.37330094 -0.4510038 -0.10546222
0.21302968 -0.13565017 0.2668774 0.083162576 -0.11107749 -0.1424605 0.28345233 -0.24885924
0.29111385 0.37744144 -0.12315603 -0.1693307 0.37033737 -0.25050825 0.14152724 -0.1591128
0.4186019 0.30484372 -0.16424757 0.32180014 0.18603586 0.19467793 0.15078148 -0.10346518
-0.0051602623 0.36213034 0.12508477 -0.26048294 0.1988741 -0.25390628 0.33826104 0.16139448
0.15150595 -0.37400195 -0.022693293 -0.23375481 -0.3023324 -0.042978723 0.12038663 -0.33212724
0.1507432 -0.065467834 -0.50866646 -0.40473473 0.28673783 -0.36875907 0.23349747 0.30908504
-0.38396493 -0.45999622 0.33709145 0.03654609 0.07845707 -0.06682851 -0.24977317 -0.19497511
-0.20546852 -0.32617953 -0.26800507 -0.057164766 0.044966366 0.21365587 0.21092029 0.19149591

denoiser_1.D.0.bias f4 [32]
00000000: 5142 c13c 46b0 193b 374b 25be 86df 2b3d
00000010: f86e 57be cb48 9e3a 0352 143e 6479 023e
00000020: 3aa0 6a3d e18f 1d3e 41bc 4fbc 1977 ddbd
00000030: a580 bd3c 5cca e13d 622f 2d3e fbf8 97bc
00000040: 5e4f fd3c 4452 05be bee3 c63d 81ee 35bc
00000050: fa16 fabd 6e92 543e 8bb1 e5bc 7322 31be
00000060: e06e a6be 65b8 463e ca96 17be 8035 8e3e
00000070: 84ab 243d fd3b 8abe a83f 83bc 219a 90be
0.023591192 0.0023451014 -0.16141973 0.041961215 -0.21038425 0.0012076137 0.1448441 0.1274162
0.05728171 0.15386917 -0.012679161 -0.10813732 0.023132632 0.11024925 0.16912606 -0.01855134
0.030921634 -0.13019663 0.09711407 -0.011104227 -0.12211414 0.20758983 -0.02803876 -0.17298298
-0.32506466 0.19406278 -0.14803615 0.27775192 0.040202633 -0.26998892 -0.016021565 -0.2824259

denoiser_1.D.2.weight f4 [32, 32, 3, 3]
00000000: df3c acbd e31b 1a3d c5ca f0bc a14f cabd
00000010: ff32 ae3d e9c4 1d3e 9334 e0bc a0b3 bbbd
00000020: b8a2 babc eaab 983d c75d c5bc 7dd0 183b
00000030: 3266 0bbd c436 cfbc 42ca f13d 1129 833d
00000040: efbc 913b 97d0 d83b c41b 9fbd 34fe 033c
00000050: 93f7 18bd 30c7 0ebc 4eb6 bcbd a328 b2bd
00000060: 0909 5cbd 2a31 473c 5b45 17bd 155c ef3d
00000070: 9ddc 3cb9 62e9 9a3d aa9f a6bd 4176 77bc
00000080: 638a a63d f703 823c 6c62 5a3c 7829 3c3e
00000090: d1ce f1bd cada c13c 8199 913d 4c1e 7dbe
000000a0: bddf 6abe 28ef 04be 4920 bf3c 9122 0abe
000000b0: 8746 7ebb 2058 a93d 2471 c53b ec7d 883d
000000c0: 65bc d8bb 31f7 8b3d 107e a83d 23ee c4bc
000000d0: d724 bb3d e106 913b 0c7f 903b 83b9 96bd
000000e0: 05df 24bd aec4 333b bc7e 513d 8599 ddbb
000000f0: 4880 90bd 517a 3b3d 84f0 333d e663 b7bb
00000100: 1638 b0bc ef0b 7ebd f4b9 b03c 7cc4 63bd
00000110: 037f 0b3d 2b5b 47bc 3ec8 4abd 10ef 99bc
00000120: f765 8cbd 216a 02bd 571e 7f3d e353 43bd
00000130: 6ca8 653c 01b4 95bc b9f8 88bc ada8 43bd
00000140: f203 be3d 1606 5bbd 9489 3ebb 1263 ccbb
00000150: 50b2 63be a041 7abd daae 9f3c acf4 183d
00000160: c2c3 05bd 0906 233e a775 a03d a0e8 3abc
00000170: 114c 583c 6684 80bc 5be3 ea3d 2c17 30bd
00000180: 6248 88bd ac48 ff3c 627c ddbd 4587 6dbe
00000190: 2430 72be 5691 b3bc c43e 02be 7dd0 68bc
000001a0: 0d05 483d f942 c83d 43d6 5abd 84fb 52be
000001b0: 6f20 e1bd eadc 77bd 2cde 5fbd 5c1f a7bd
000001c0: 715b 653d 4db4 693d 5abd 3c3d b772 413e
000001d0: cc2c 783d 631a cabd 86c3 13bd 8f10 083e
000001e0: b289 cfbd c8b6 8f3c eab9 09bd f487 c43d
000001f0: 1af8 68bd 4a7f 883c 9b56 91bc 1ffa a23c
00000200: 2f8b ca3c 0807 993d 0754 71bd c61a 2e3c
00000210: d085 15be 94f2 3a3d 64f5 61bd fb50 c33c
00000220: 67b0 203c 4038 d13c 8d10 4b3d dc4c b93d
00000230: ca58 d03d 91de 32bd aa4e a53c 9a07 1bbe
00000240: 652c a03d 7ac1 b9bc 7703 74bc c115 0ebc
00000250: 3ad6 243d 100e a83d 2ad1 5dbd ad84 14bc
00000260: f187 1c3e 5520 3b3e e5e1 b1bc b3c0 9fbc
00000270: a04d fb3d b95a 3f3d 028b 083d 91c2 cbbc
00000280: c51e 293d e37c 23be 4839 0d3d edeb a53c
00000290: 71bd b0bd ae82 603d d382 9b3c 9f69 4bbd
000002a0: 789f 91bd fd3a 163d 2217 783d cdcf ae3c
000002b0: 70e6 b13b 964b cb3d 1a26 c43d 1ee8 08bd
000002c0: 4fae 713d 072b bdbc 3fc4 143d 5bd6 ddbc
000002d0: 5e78 ff3d b67c 083d 5448 e7bc 4872 f63c
000002e0: 5932 013c 9365 aabd c895 693a f7b4 23bd
000002f0: 1fd0 733e 3e3a 2bbd 33a9 17bd 4365 de3b
00000300: c098 96ba 7951 1abd d304 f13d de2c fbbc
00000310: 6f83 65bd c219 453d 8562 9f3c c30a 5bbb
00000320: 5002 ee3d c138 d7bb 00ad d13d 3632 103e
00000330: 45fc 293d 4a2a 19bd 16ee 023d c83a 863e
00000340: 7715 863b 0941 54bd b0fa c43d 3ce0 bf3d
00000350: 8982 d93d abb1 433d c6f1 1b3d 9d9d 9a3c
00000360: 9b7b f0bd aa1f 5a3d dec9 463d 58f3 993d
00000370: 0acd ecbc 8767 243e c127 553d ccb4 673d
00000380: eecd 393e 44a3 8cbd f393 00be ce24 cbbd
00000390: bb20 84bd 3a63 25bd c68f 0f3d a271 56bd
000003a0: 11b7 95bd 9827 47bd 58e9 24bd 163f 0c3e
000003b0: cd9a a13d cefc 1abd a94b babd 3b6c cbbd
000003c0: d34c 37be dc9a 0c3d 3c14 19bd f7af 82bd
000003d0: 17d1 d3bd 4ef0 8bbd 1bb5 2fbe 1c62 80bc
000003e0: 38cf d0bc 14e8 31be 1144 63bd 3115 afbc
000003f0: b65a 9a3b 2637 9a3d a6e1 a13b 0771 823d
-0.08410048 0.03762425 -0.029393563 -0.09878469 0.085058205 0.15407147 -0.02736882 -0.0916512
-0.022782668 0.07454665 -0.024092568 0.0023317628 -0.034033008 -0.025294669 0.11806156 0.06404317
0.0044475715 0.0066166627 -0.07768968 0.008056212 -0.03734548 -0.008714482 -0.09214459 -0.08699157
-0.053719554 0.012157718 -0.036931377 0.11687485 -0.00018011262 0.075640455 -0.08135922 -0.0151038775
0.08131864 0.015871031 0.01332913 0.18375194 -0.11807025 0.023663897 0.07109357 -0.24718589
-0.22936912 -0.12981856 0.023330824 -0.13489749 -0.0038799362 0.08268762 0.0060254503 0.06664643
-0.0066142553 0.068342574 0.082271695 -0.024039334 0.09137886 0.004425869 0.0044096764 -0.07359602
-0.04025175 0.0027430463 0.051146254 -0.0067626857 -0.07055718 0.045770947 0.043930545 -0.0055966256
-0.021511119 -0.0620231 0.021573044 -0.055607304 0.034056675 -0.012167732 -0.049507372 -0.018790752
-0.06855386 -0.031839494 0.062284794 -0.047687422 0.014017206 -0.01827431 -0.016720163 -0.047768284
0.09278096 -0.0534726 -0.0029073702 -0.006237396 -0.2223599 -0.06109774 0.019492555 0.037342712
-0.032657392 0.15920271 0.078349404 -0.011408001 0.013201729 -0.015688132 0.11469146 -0.04299085
-0.06654431 0.031162582 -0.1081474 -0.23196132 -0.23651177 -0.021919888 -0.12719256 -0.014209864
0.04883294 0.09778399 -0.053426992 -0.20603758 -0.10992514 -0.060513414 -0.05465524 -0.08160278
0.05599541 0.057056714 0.046079017 0.18891416 0.060589597 -0.09868314 -0.036075138 0.13287567
-0.10133685 0.017543212 -0.033624567 0.095962435 -0.056877233 0.016662259 -0.017741492 0.019894658
0.024724571 0.07472044 -0.058918025 0.0106265005 -0.14601827 0.045641497 -0.055165663 0.023842325
0.009807683 0.025539517 0.04957633 0.09047863 0.10173185 -0.043669287 0.020179112 -0.15139619
0.078209676 -0.022675265 -0.014893404 -0.008672179 0.040243365 0.08205807 -0.054154553 -0.0090648355
0.15286233 0.18274052 -0.02171416 -0.019501066 0.12270665 0.04671738 0.033335693 -0.02487305
0.04128911 -0.15965609 0.034478456 0.0202541 -0.08629883 0.054812126 0.01898328 -0.049661275
-0.071104944 0.03667735 0.060568936 0.021339322 0.0054290816 0.09926526 0.0957758 -0.03342449
0.059004124 -0.023091806 0.036319967 -0.027079752 0.1247413 0.03332206 -0.02823273 0.03008379
0.007885539 -0.08320155 0.0008910564 -0.039967503 0.2380986 -0.04180359 -0.037026595 0.0067869737
-0.0011489615 -0.037675355 0.11768498 -0.030661043 -0.056033548 0.048120268 0.019456157 -0.0033423163
0.11621535 -0.006568045 0.10238075 0.14081654 0.04150035 -0.037393846 0.031965338 0.26216722
0.0040919143 -0.051819835 0.09618127 0.09368941 0.10620601 0.04777686 0.03807237 0.018873984
-0.11742326 0.053252853 0.04853236 0.07517117 -0.028906364 0.16055118 0.052039865 0.056568906
0.18144962 -0.06867078 -0.12556438 -0.09919129 -0.06451555 -0.040377833 0.035049222 -0.052354462
-0.07310308 -0.048621744 -0.040261596 0.1369594 0.07890854 -0.03783875 -0.09096462 -0.09932753
-0.179004 0.034327373 -0.037372813 -0.06381219 -0.10342615 -0.06832944 -0.1715893 -0.015671782
-0.025489435 -0.17373687 -0.055484835 -0.02137241 0.0047105206 0.0753005 0.0049402295 0.063692145

denoiser_1.D.2.bias f4 [32]
00000000: 4d25 56bd a749 543d 397b 213d b10c 993c
00000010: abd0 09bc 8245 9a3d b880 81bc 28a1 523d
00000020: b02e 783c ce92 d73c 8dab 213d 7254 2cbc
00000030: ed83 e2bb 6888 56bd 13d5 3a3d 59f0 473d
00000040: a505 103c be3a 5cbd 2798 73bc d2c4 243d
00000050: f1cc 11bd 2506 cf3c cf2e 32bd 01fd 083b
00000060: e044 a3bd 8865 e13c 8f11 c53c 4658 29bd
00000070: 201f 6cbb 84bb bdbb 67ab 603d 8dbf 983c
-0.052281667 0.051828053 0.039424155 0.01868281 -0.008411567 0.07532789 -0.015808448 0.05142322
0.01514785 0.02631512 0.039470244 -0.01051818 -0.0069126994 -0.05237618 0.04561336 0.048813198
0.008790408 -0.05376696 -0.014867819 0.040226765 -0.035595838 0.025271485 -0.04350167 0.0020902755
-0.07972121 0.027514234 0.024056224 -0.04134395 -0.0036029294 -0.005790176 0.054850962 0.018646026

denoiser_1.D.4.weight f4 [32, 32, 3, 3]
00000000: bb0b d1bd 7757 dbbd 724c a93d b54a bcbd
00000010: e512 4fbd 16f2 463c 12c8 92be ffda b6bd
00000020: 61c3 5abe 4ec9 09be 770c cf3c 9dd3 0a3e
00000030: fa84 e9bc d74a 30bd 7f8d e73b 9edc 19be
00000040: 774d 37be 1c6b fbbd 2a94 dabd 0733 783c
00000050: a356 a33a ac0e 603c fbc6 d33d a81e e5bb
00000060: 1a0c c3bc 7807 3c3d b342 09be 5802 5dbd
00000070: c0a7 0b3d ca9f adbc 4d06 ddbc 616a 953c
00000080: e362 923c 2780 00be beb8 e9bd 882a a7bd
00000090: 4492 f6bc 575d fd3b fb52 d0bc d5f9 68be
000000a0: 683b d8bd e86f a5bb 8b1a 603d c086 7abd
000000b0: a8db 803d 736c f33d cfda 5dbc 1d7d 6d3e
000000c0: a92e babd 27bd 463e f91f 1fbd 413d 17be
000000d0: 74b5 ffbd 5160 b43d d530 ccbc b121 11bd
000000e0: 9f7d 32bd c367 393c cf01 893c 74f4 2b3d
000000f0: 791c 89bc 9f39 043d cc92 263c 08cb aa3d
00000100: 68ce 103d f6e0 833d 87cd f3bc 79b1 29be
00000110: 9d0e 043e 21ec 553e 9d47 83bd 3bda 0abd
00000120: 4d7b 0b3d 444d 0abd a099 8bbd ce95 2cbe
00000130: 311d 34be 8424 8fbd bf8c 6b3e 2d5d 67be
00000140: 897f 353e 7226 1abe 03b6 6d3c 7eb5 c73d
00000150: c7ee 91bc 2aa1 a2bc ef04 97bc ca2d c03c
00000160: 4972 01be 28be 00bd 07fa 80bc 18cd b23b
00000170: 49b6 b13d c67c 6ebc 6e93 953d 7354 55bc
00000180: d8ae e73c 8bc7 0b3d d812 52ba 2e07 e3bd
00000190: fdeb babd ec09 97bd 17fe 3bbd bb71 5a3e
000001a0: a74a 84bc 6c14 18be 119c bc3d ffd2 f83d
000001b0: f59e 233e 167d 333e 3f49 373e 2ded 5dbe
000001c0: 563e 073a 4542 843d 8acc 933c 1a48 203c
000001d0: 51a6 113e 163e a43a 4bb5 b13c ade9 263e
000001e0: 3f5e 87bd 3deb 44be f872 b83d 302d 55bd
000001f0: 4c67 35bd 933b 79bd 9917 3f3c d1a0 d53c
00000200: 0a2c db3d f4b5 c0bc 46c6 a1bd 239a 2b3d
00000210: b11b 2cbd 8b69 8a3b d6f5 dc3c 6e1d 793d
00000220: 2e53 973d eb6f 10be ca84 c9bd ed56 abbc
00000230: fe3b bb3d 3ac9 51bb 8931 f13d 638a 01be
00000240: 955c 26bd b85b a9bd f460 a0bd 160a cd3d
00000250: 6907 b9bc f631 7b3d 48a1 cfbd bb65 15be
00000260: 269e 8abe a448 0739 1718 4cbd f253 1fbd
00000270: 7848 383c a358 01bc 13fe 8b3d 8bcb a5bc
00000280: f67a 1dbd a269 693c cbed 83bd 10d9 ff3d
00000290: 3828 44bc f1b7 83bd 1c43 d23d cdfb 803c
000002a0: 7a84 87bd cff9 203b f1e6 43bd a254 60bc
000002b0: c780 8fbd 1d20 f9bc a2b7 04bc fb7d c73c
000002c0: a5ae 34bd 46c7 c73c 0114 983d 6193 1a3b
000002d0: 1edc 403c caf6 163c 9122 d93d 1e47 e2bc
000002e0: cb42 8bba d76b 07bd 6767 653b 3966 adbc
000002f0: 8d9b eabc 66f0 693c c6fe f63c 270d a63d
00000300: 8702 153c 44a4 eabc 65a4 5a3b 8230 433d
00000310: 1e4e b43d 7933 cb3d 68fa 883d 4854 08be
00000320: 3eed 4bbe f45f 62bc c74e 4dbd 4cab 93bd
00000330: de21 cfbe 374c 93bd 28eb 133d 45e0 13bd
00000340: 64f6 63bd 85a0 11bc cb0f 94bd a39c d8bb
00000350: 7f55 2d3d 9eef f7bd 1e38 eb3c ef63 d03b
00000360: 3f7d f83d 1601 333e 46db c93e b431 543d
00000370: ea14 86be 1ee9 dbbb d6a6 6c3d 007b 98bc
00000380: f25c 8a3d 8360 7dbc 5731 7b3c 9178 a0bc
00000390: ed66 26bc f671 8bbc 40cb 0d3d 6224 c73d
000003a0: 33bb dcbd ed9b f13c f353 04be 9937 18be
000003b0: 4d04 3ebe e6c4 193e f829 e7bd c4e2 67bd
000003c0: 12ab e83d ac41 c3bd ce63 21b9 5e95 2ebe
000003d0: d173 e13d c0b4 023e 866d f0bd 9d6a 85bb
000003e0: 5b48 9ebd 21c1 0f3b 58fa 433d ae14 a33d
000003f0: ce49 a0bd fe7b fe3d 3d5a b9bd 4500 80bd
-0.102073155 -0.10710042 0.08266534 -0.09193937 -0.05055513 0.012142679 -0.28668267 -0.08928489
-0.21363594 -0.13455698 0.025274498 0.13557287 -0.028505791 -0.043040123 0.007066428 -0.15025565
-0.17900644 -0.12276289 -0.10672791 0.015148885 0.0012461733 0.013675373 0.10340687 -0.00699218
-0.023809481 0.04590556 -0.1340435 -0.053957313 0.034095526 -0.021194357 -0.026980544 0.018239202
0.017869418 -0.12548886 -0.1141219 -0.08162409 -0.030099042 0.0077320742 -0.025430193 -0.22751553
-0.10558206 -0.0050487407 0.054712813 -0.061163664 0.06291896 0.118859194 -0.013540938 0.23192258
-0.09090931 0.19408093 -0.03884885 -0.1476946 -0.12485781 0.088074334 -0.024925629 -0.03543252
-0.043576833 0.011316243 0.016724495 0.041981176 -0.01673721 0.032281514 0.010166835 0.083395064
0.035353094 0.06439392 -0.029761089 -0.16571607 0.128962 0.20890857 -0.064101435 -0.033899527
0.034053136 -0.033765092 -0.06816411 -0.16854021 -0.1758926 -0.06989387 0.23002909 -0.22594137
0.17724432 -0.15053728 0.014508727 0.09751414 -0.017814053 -0.01985224 -0.01843497 0.023459334
-0.12641253 -0.031431347 -0.015744222 0.005456578 0.08677346 -0.0145561155 0.073035106 -0.013020623
0.028281614 0.034125846 -0.0008013672 -0.11085354 -0.091270424 -0.07374939 -0.045896616 0.21332447
-0.016148878 -0.1485154 0.09209455 0.12149619 0.15978606 0.17528185 0.17899035 -0.21672507
0.000515913 0.064579524 0.018041868 0.009782815 0.14223601 0.001253071 0.021692893 0.16300078
-0.06609773 -0.19230361 0.090063035 -0.052045047 -0.044287965 -0.06084783 0.011663341 0.02607766
0.10701759 -0.023524262 -0.07899146 0.041895043 -0.042018596 0.0042240075 0.026972692 0.060819082
0.07388912 -0.14105193 -0.09839781 -0.020915473 0.09142302 -0.003201081 0.11777026 -0.12650447
-0.040615637 -0.08269447 -0.07830992 0.10011689 -0.022586541 0.061326943 -0.10138184 -0.14589588
-0.27073783 0.00012901664 -0.04982766 -0.038898416 0.011247747 -0.007894668 0.0683557 -0.020238658
-0.038447343 0.014246376 -0.0644184 0.12492573 -0.0119724795 -0.064315684 0.10266706 0.015745068
-0.06617065 0.002456296 -0.047827665 -0.013692053 -0.07006984 -0.03041082 -0.008100422 0.024352064
-0.044111867 0.024387013 0.074256904 0.002358638 0.01177123 0.009214113 0.10602296 -0.027621802
-0.0010624764 -0.03306183 0.003500426 -0.021166908 -0.028638626 0.014278507 0.030150782 0.08107977
0.009094841 -0.028642781 0.0033362147 0.047653683 0.08803962 0.09921927 0.06688386 -0.13313401
-0.1991472 -0.013816822 -0.050123956 -0.07210407 -0.40455526 -0.07192271 0.036112934 -0.036102552
-0.0556549 -0.0088883685 -0.07229575 -0.0066104694 0.042317864 -0.1210625 0.028713282 0.0063595693
0.12133264 0.17480883 0.39425105 0.051805213 -0.2618783 -0.0067111393 0.057776295 -0.018613338
0.06756009 -0.015464905 0.015331588 -0.01958874 -0.010156375 -0.017022114 0.034617662 0.09723736
-0.10777893 0.029493297 -0.12922649 -0.14864959 -0.18556328 0.15016517 -0.11287302 -0.056612745
0.11360754 -0.0953401 -0.00015391337 -0.17049167 0.11008418 0.12764263 -0.1173964 -0.004071547
-0.077286445 0.0021935182 0.04784617 0.07962929 -0.07826577 0.124259934 -0.09050415 -0.062500514

denoiser_1.D.4.bias f4 [32]
00000000: f343 fcbb 6b28 16bc 6215 bb3c e1eb b9bc
00000010: f290 82bb 0dc9 8e3c 466d c1bc 363f 903d
00000020: 4ff8 febb 11b7 163c 3feb fcbc 5d1a 583d
00000030: 8292 42bd 6b4a 3abd c780 9b3d f2d2 d13c
00000040: 5262 e03c 29e1 c2bc e6b0 22bc c0b5 bc3c
00000050: cf12 e53c a36f 803d 4ec8 cdbc e850 ddbc
00000060: 866a ec3b 9935 513c c0f2 cc3b d1b0 d13a
00000070: fd7a 56bd fa1a 64bd 737b ca3b 65bd bfbb
-0.00769853 -0.00916491 0.022837345 -0.022695484 -0.003984564 0.017429853 -0.023611676 0.070433065
-0.0077810655 0.00919892 -0.030873893 0.052759517 -0.047503002 -0.045481127 0.07592922 0.025613282
0.027390633 -0.023789005 -0.009929871 0.023035884 0.02796307 0.06271293 -0.025119927 -0.027016118
0.007214847 0.012769126 0.006254524 0.001599813 -0.052363385 -0.05568979 0.006179267 -0.005851435

denoiser_1.D.6.weight f4 [1, 32, 3, 3]
00000000: b1d8 4bbe 4da6 bfbc ddf9 883e c83a af3d
00000010: 7ae2 18be f5f2 30be 1f1a 163e f357 8dbb
00000020: 96bb c9bd 2029 143e e46e 8d3d 26f5 fe3d
00000030: a83c 453d 97bb c6bc cb80 9b3d 9fc8 83be
00000040: 19cd 23be 7174 08be ffb8 e0bd 9800 52bc
00000050: 22ed 3abd f9dd 8b3c d14a ffbb 76c3 4f3b
00000060: c9b5 b43d 55cd 5f3c 1f91 7d3d 3bfa 5f3d
00000070: 100e 39bd 8eda 92bb 7703 ad3d 7bdc b53d
00000080: 920e 21bd efaf 1b3c 618b 38bd b557 f4bd
00000090: 7876 503d edb0 8f3d 31a4 9ebd 9169 8d3c
000000a0: 699f 873c 0238 5abe 63bd 103c 0486 debc
000000b0: 618d 42be ac35 a6be 0602 38be 04fc d1bd
000000c0: 486d 513d f7e2 51be 02c8 833d e03f 79be
000000d0: b0c8 2ebe d159 13bc 4da0 283e e33d f43d
000000e0: b8fe 1f3e 7903 0d3e a944 aa3e 38f5 223e
000000f0: bf54 093e f9ef 1e3e 69d6 013e d597 bcbc
00000100: 7f7d 72bc 8615 c3bd dc8e 68ba 6d5a 413d
00000110: ef10 03bd 6b13 923d ca88 a53d 0897 35bd
00000120: e6c5 f93d 02c4 29bd 4641 40bd 0351 7abd
00000130: a367 8cbd 217f ccbc fa68 7a3d 92c1 e63c
00000140: 75fd 08bc 07b3 d93d cb55 483c 77be 413c
00000150: 2e35 f1bd 2329 d23d 89dc 69bb d15c d7bd
00000160: fcaf adbc f9ca 903d 7262 07bc 5264 b83d
00000170: ae87 d0bd 2481 b5bd 4bd3 8f3d f87e 383d
00000180: 46ba 0d3d 9b18 963a 5565 09bd caba 7cbd
00000190: 00b5 403d f3d2 0f3b 10d8 4cbd eae2 d43c
000001a0: 4679 84bc d1f1 ff3d a220 2ebd 3153 893d
000001b0: cc58 c5bd 33ff 80bd d71c 37bd 0f8e b43c
000001c0: d759 b73c 40b5 c23c 7a07 2d3d 47a0 7abc
000001d0: 434f c63d 0632 0d3e 385d c73d 66c8 2d3b
000001e0: 628b d93d 422a c13c fe1a f0bc 5e07 c23d
000001f0: ec3b 653d 3280 6abe 0d49 ad3c dc48 273d
00000200: 43d5 c7ba 335f 61bd a770 c0bd 08ec 70bd
00000210: 21ae d33d c35d 5e3d 4f1e 373d 2ee2 d83b
00000220: a7e8 27bd 6df0 89bc c927 d33b eb83 99bc
00000230: 44b5 413d 0781 4d3d e1e1 1a3d 47df c4bd
00000240: 5de1 333d 39b9 503d 1f99 c03c f1fd b5bd
00000250: da5b 01be b067 393d 5525 2bbc f892 6f3d
00000260: 58f6 05bd e014 8d3d f1ba cd3d 6786 a53d
00000270: b945 643e 9e44 983e 6c52 203d 7ab9 cc3e
00000280: 0f30 053e 4ca2 143e 8b52 a03d e41f 00bd
00000290: 8db7 df3d 2435 14be 4350 7d3d 7e71 9dbc
000002a0: dc77 a3bd 6566 163d 2fd6 c6bc 16a9 e43d
000002b0: 7b2a 2e3c 06f0 5c3e 010e 3a3e 646a 323d
000002c0: a326 113e d54d 48bd 696a d43c 21f0 8a3c
000002d0: ea2c f53d 3b89 b23d cd27 abbd a78d 4f3e
000002e0: 7b92 923b 97ba b0bd f710 8e3e 175e a53d
000002f0: 87ea f03d 76d8 fd3c 7217 973c ebab 963d
00000300: 724c 9bbd 28b5 633d c8d2 d33d 86f4 d1bd
00000310: b869 9dbc 1833 3fbd f40b 12bd c95f 4d3d
00000320: aaf4 bb3c dac7 2fbd 6e11 8cbd fdde ad3c
00000330: 1f50 ffbd 65ec e23d 5f59 a83d 3278 dabd
00000340: 747b 8fbd 2d61 4cbd 4564 f6bd e429 fcbc
00000350: 0013 043c 3354 05bc ffb7 3e3d 6122 8e3d
00000360: 2b28 663d 615c adbc e2c2 f13c 2927 fb3d
00000370: 3982 1f3d 8f04 a23c 0cae 9c3c 7ed0 b8bd
00000380: 51ee b6bd a39d bf3d e564 e3bc 080d f6bd
00000390: 741d 6c3d 40a4 d1bd 28de 123c e095 da3d
000003a0: 401e 34bd 6b2a 403d 9454 86bd 44cd 293c
000003b0: 7ecc debd 3042 7a3d 7be9 373c ce55 6b3d
000003c0: 2353 e13d 2a6b 343d 7f9c eebc c4df fe3d
000003d0: b5d2 7cbd 9132 72bd 3ece 213d a495 4ebb
000003e0: 79d8 123e c7e4 363d baf4 d5bd 26dc 04be
000003f0: 91da 8fbd 7c71 cdbd 5358 ac3c 9db9 ecbd
-0.1990688 -0.023394728 0.2675313 0.085561335 -0.14930144 -0.17280181 0.14658402 -0.004313463
-0.09850232 0.14468813 0.06905916 0.12449102 0.04815355 -0.024259372 0.07592925 -0.25739
-0.15996207 -0.13325669 -0.10972785 -0.012817524 -0.045636304 0.017073618 -0.007790901 0.0031702197
0.08823735 0.013659795 0.061905976 0.054681998 -0.045179427 -0.00448162 0.084479265 0.08879944
-0.039320536 0.009502395 -0.045054797 -0.11930791 0.05089423 0.07016168 -0.07746161 0.017262252
0.016555505 -0.21310428 0.008834216 -0.027163513 -0.18999244 -0.32462823 -0.17969522 -0.10253146
0.05112961 -0.20496736 0.06434633 -0.24340773 -0.17068744 -0.008993582 0.164674 0.119258665
0.15624511 0.13770856 0.3325551 0.15913856 0.13411234 0.1552123 0.12679447 -0.023021618
-0.014800428 -0.0952559 -0.00088713854 0.047205377 -0.03199857 0.0713261 0.08082731 -0.044333488
0.12195949 -0.041446693 -0.04693725 -0.061112415 -0.06855705 -0.024962964 0.06113527 0.028168473
-0.00836121 0.1062985 0.012227486 0.0118251955 -0.11777721 0.102617525 -0.0035684428 -0.1051575
-0.02120208 0.07069964 -0.008263217 0.090035096 -0.10182129 -0.08862522 0.07022723 0.04504296
0.034601472 0.0011451425 -0.033543903 -0.061701573 0.047047615 0.0021945804 -0.05001074 0.025987107
-0.016171109 0.12497295 -0.04251159 0.067053206 -0.09636077 -0.062986754 -0.04470524 0.022040395
0.022381706 0.023768067 0.04224346 -0.015297002 0.09683087 0.13788614 0.09734577 0.0026517152
0.10622288 0.02357972 -0.029309746 0.094740614 0.05596535 -0.22900465 0.021152997 0.04084097
-0.0015246052 -0.05502243 -0.09396487 -0.058818847 0.10335947 0.054288637 0.04470664 0.0066187596
-0.04099336 -0.016838277 0.0064439517 -0.018739661 0.04729201 0.05017188 0.03781307 -0.09612899
0.043916095 0.050957892 0.023510514 -0.08886326 -0.12632695 0.0452649 -0.010445912 0.05848977
-0.032705635 0.06888747 0.10045422 0.08082276 0.22292222 0.2973985 0.039141104 0.39985257
0.13006614 0.14515036 0.07828244 -0.031280413 0.109236814 -0.14473397 0.06184412 -0.019219156
-0.07981846 0.036718745 -0.024272053 0.11165063 0.010630245 0.21575937 0.18169405 0.043558493
0.14174895 -0.04890235 0.025929647 0.016960206 0.11971457 0.08717581 -0.08357201 0.2026888
0.0044730282 -0.08629339 0.27747318 0.08074587 0.117634825 0.030987006 0.018443797 0.073570095
-0.0758294 0.055592686 0.10342938 -0.10251717 -0.01921545 -0.046679586 -0.03565593 0.050140176
0.022943813 -0.042915203 -0.06839262 0.021224493 -0.12466454 0.11080245 0.08220171 -0.10667457
-0.07005969 -0.04989736 -0.12030844 -0.030781694 0.008061171 -0.00813775 0.04656219 0.06940151
0.05619065 -0.021162214 0.029511873 0.122633286 0.03894255 0.019777564 0.01912596 -0.09024142
-0.08932174 0.09356239 -0.027758071 -0.12014204 0.057645276 -0.10236406 0.008964099 0.10673118
-0.04397416 0.046915453 -0.06559101 0.010363881 -0.108788475 0.061098278 0.0112251 0.057454877
0.11002185 0.044047512 -0.029127358 0.12445024 -0.061724383 -0.059130255 0.03950333 -0.0031522298
0.1434039 0.044651773 -0.104470685 -0.12974605 -0.0702411 -0.10031411 0.02103821 -0.115588404

denoiser_2.D.0.weight f4 [32, 1, 3, 3]
00000000: 8c58 07be 6f1c afbd 363e a2be c56c 0bbf
00000010: a581 d0be 455b cf3e 7fae 6c3e 306d eebe
00000020: 768d 4c3e 4c24 443e 7452 023e ea49 8f3e
00000030: 6695 8e3e 9a53 98bd c921 873e f02c 6a3d
00000040: 35be a73e 5094 afbd 33dc db3d f8df bf3e
00000050: a832 fbbd bdd0 8cbc 77df b2be 84f9 103d
00000060: 08ea 6d3e bb18 d9be 8b31 efbd e537 0bbf
00000070: 6d9f 1dbf 3311 693e cf26 d53d ad5f c73e
00000080: f8ce e1be 0aa6 4bbe e586 dabd ddc0 0cbf
00000090: 9968 793d be57 01bf 4f91 eb3e a3e5 6bbe
000000a0: 70b9 d5be 297c cbbe fab7 71bd 4548 813c
000000b0: 54f4 f3be 7805 ec3e 4cd5 753e 6c66 9bbd
000000c0: af67 c7bd 4e0d c9bd fdc0 ccbc ba21 22be
000000d0: ed7e 033e b71a debe c5a4 b4be 1b3d ecbe
000000e0: d6a0 673e 7f48 4f3d 0a27 f3bd b46e 86bd
000000f0: 1144 d13e 5109 9c3e 24ac 793e b966 9c3d
00000100: cc12 43bd 9c4b 94be e85c 063e fb16 67be
00000110: de5b 743c 594d 5e3d 3a94 c4be a260 06be
00000120: dc4b 773d d86d 24be a700 18bf d0ba 2cbe
00000130: 205d 24be f547 db3e 9632 af3d 91e2 fbbd
00000140: 85d5 b03e 2445 153e 52b9 d2bd 631f 773e
00000150: 8311 d1be eb37 e8be 649d 983e 21af 7a3d
00000160: b395 89be 95f7 0d3d 8bbf b2bd d2eb 71be
00000170: a4ba a43d f63c 2fbe c840 a23e 3e11 7ebe
00000180: 532b 65be b44a debe 7e9d 413e ce95 9abe
00000190: f6af 173e 4968 d83e 58de e0be 1a58 8fbe
000001a0: 284b 4a3d e348 f5bd a679 c43e f6da f8be
000001b0: 2cfb 903d 7c91 803e 1621 bf3e 884c 81be
000001c0: 3c99 d63d f950 bd3e 60de 1bbd 152a 133e
000001d0: 65e8 6b3e ad41 babe 4177 8e3e 1fa6 2f3e
000001e0: 95e8 e8bd c33c ab3c 7bb8 253e 70a7 543e
000001f0: a2ae 3fbe 637b babe fb76 363e 88ef 17be
00000200: 5642 b8be 9540 fabe 3e28 89be 6a1d 00bb
00000210: 4040 7c3e 43b4 833e efc1 193e a483 e1be
00000220: 88eb 71be baad 493c b012 573e aed3 f73d
00000230: 9bf5 2cbd d630 8d3e 0bcd 033c 77a2 3ebe
00000240: b7c5 3f3e 0790 13be 7e97 5d3e 334e 81bd
00000250: 9211 acbe be1c 853e ec16 8fbe fdc0 8c3e
00000260: 3db8 09bd 3ed6 e1be 9d22 6d3c deb6 5d3d
00000270: e2c8 0d3e 95e4 d6be 1045 493d 6b58 743e
00000280: 2309 b23e fd62 06be 8775 203e e25a a13d
00000290: b869 b7be 37ea 6abe b414 743d e659 acbd
000002a0: 1e89 9dbe f814 99be f99f b5bd 2340 90be
000002b0: a836 60bd 54d6 c73e 3976 e5be 9b7e 5f3e
000002c0: 842f 3abe 5ddf 9ebe 057a 7cbd 55f3 7a3e
000002d0: c16d e1bd 149e 6e3e d5fc 943e 7c69 4d3e
000002e0: 1df4 28be 599b 88be 9f87 39be 4b40 a53e
000002f0: b2bf 8c3e f50b 2abe 9edd 513e b1dd 9abe
00000300: a909 66be 1658 bdbc 6a8a 41bd b09f babe
00000310: b654 74be 0e4a fb3e 8f73 a13e b0f8 80be
00000320: e457 29be 902b c63e ceba 933e a63c 9ebc
00000330: 1258 7f3d 0001 85be 5cae 5c3e 57cc 25be
00000340: ea39 9dbe c440 3abe 448e 153e fbc6 f33d
00000350: ca74 9fbb 6f04 9cba def3 a3be 3683 ab3c
00000360: 5327 1f3e a57c 18be aa68 bebe e6c5 a0be
00000370: 2fef 22bf 5d53 aa3e 7039 a83d f065 c43e
00000380: 7007 9abe dd3e 083d 5693 ad3c a59a 193d
00000390: ca16 24be 74f1 97be 9209 a7bd 91fb aabe
000003a0: 533d 593e a105 ae3d da01 7d3e 1a0d f6be
000003b0: b2c4 0abf 9239 9e3e e150 fcbe 49da a83e
000003c0: e7d8 fc3d 074c 51bd 23a3 213e e016 57bd
000003d0: 6805 b93d 3497 793e 234a 893e 036d 033e
000003e0: ae7c 9f3e a9c5 823e 310c 20be c6c7 47be
000003f0: f97a b03e 2fd5 20be 3a0f 7a3b 7b94 a0be
-0.13217372 -0.08550345 -0.31688088 -0.54462844 -0.4072391 0.4049932 0.2311344 -0.46567678
0.19975838 0.19154471 0.12726766 0.2798608 0.27848357 -0.07437821 0.26392964 0.057171762
0.32762304 -0.0857321 0.10735359 0.37475562 -0.12265521 -0.017189378 -0.34936115 0.035394207
0.23233807 -0.4240168 -0.116793714 -0.54382163 -0.6157139 0.22760467 0.10407793 0.38940182
-0.44103217 -0.19887558 -0.1067026 -0.54981786 0.060890768 -0.5052451 0.460093 -0.23036818
-0.4174304 -0.39743164 -0.059013344 0.015781531 -0.47647345 0.46097922 0.24007148 -0.07587895
-0.09736573 -0.09816991 -0.024994368 -0.15833178 0.12841387 -0.43379757 -0.3528196 -0.4614037
0.22619948 0.050606247 -0.118726805 -0.06564084 0.40872243 0.30475858 0.24382073 0.0763678
-0.047625348 -0.28963935 0.13121378 -0.2256736 0.014914481 0.054272983 -0.38394338 -0.131228
0.06037508 -0.16057527 -0.59375995 -0.16868138 -0.1605115 0.42828336 0.085545704 -0.122990735
0.34537902 0.14577156 -0.10289253 0.24133067 -0.40833673 -0.45355162 0.2980758 0.061202172
-0.26872024 0.03465994 -0.0872794 -0.23625115 0.080434114 -0.17113099 0.3169005 -0.24811265
-0.22379808 -0.4341637 0.18907735 -0.30192417 0.14813218 0.42267063 -0.43919635 -0.27996904
0.04938808 -0.11976793 0.3837406 -0.48604554 0.07079157 0.25110996 0.3732993 -0.252537
0.10478446 0.3697584 -0.03805387 0.14371522 0.2303787 -0.36378232 0.2782536 0.17153214
-0.113724865 0.020902997 0.16183655 0.20766997 -0.18718961 -0.36422262 0.17818825 -0.14837468
-0.3598811 -0.48877397 -0.26788515 -0.0019548782 0.24633884 0.25723466 0.15015386 -0.44045746
-0.23625004 0.012309486 0.21003222 0.121009216 -0.042226415 0.2757632 0.0080444915 -0.18616663
0.18727766 -0.14410411 0.21639821 -0.063137434 -0.33607155 0.2599849 -0.27947176 0.27490988
-0.03362297 -0.44108766 0.0144735845 0.054129474 0.13846162 -0.4197127 0.04913813 0.23861854
0.34772596 -0.13123699 0.15669833 0.07878663 -0.35822845 -0.22940908 0.059590057 -0.08415584
-0.30768675 -0.2989881 -0.08868403 -0.28173932 -0.054739624 0.39030707 -0.4481676 0.2182564
-0.18182188 -0.31029788 -0.061639804 0.24506886 -0.11007262 0.2330249 0.29099146 0.2005977
-0.16499372 -0.2668102 -0.18118142 0.32275614 0.27490002 -0.16606124 0.20494696 -0.30247262
-0.22464623 -0.023113292 -0.047251143 -0.36449957 -0.2386044 0.49079937 0.31533477 -0.25189734
-0.16537434 0.3870511 0.28853458 -0.019316029 0.06233985 -0.25977325 0.21550888 -0.1619123
-0.30708247 -0.18188769 0.14605051 0.11903187 -0.0048662173 -0.0011903177 -0.32021993 0.02093659
0.15542345 -0.14891298 -0.37189227 -0.31400985 -0.63646215 0.33266726 0.0821408 0.38359022
-0.300838 0.033263076 0.02118842 0.037500996 -0.16024318 -0.29676402 -0.08156122 -0.33395055
0.212148 0.084971674 0.24707738 -0.4805687 -0.54206383 0.30903298 -0.49280456 0.32979038
0.12346058 -0.051097896 0.15784888 -0.05251205 0.09034234 0.24374086 0.26814374 0.12834553
0.3114981 0.25541428 -0.1562965 -0.19509801 0.3446882 -0.15706323 0.0038156048 -0.31363282

denoiser_2.D.0.bias f4 [32]
00000000: e7cb 53be 7136 aa3d 5cd9 51be 6dfc 4dbd
00000010: 66ef 0dbe 2175 643d c703 5dbe 6bc0 173e
00000020: 05f9 80bd 02b8 e23c 8712 443d 7e17 eabd
00000030: 7dda bbbd 5014 fc3d fa1e 4a3d 6b8a a33d
00000040: 9ff6 69bb 378d 1cbe 3f25 1e3e 01c5 b53d
00000050: 233f 2a3e bc61 003e b1d4 b2bc f898 a43d
00000060: c824 83bc 2d05 ae3d 1b8d 953d 0220 b3bd
00000070: f4ed be3b 271d 15be ea5a 3a3d 7b85 1fbe
-0.20683251 0.08311165 -0.20493072 -0.05028956 -0.13860855 0.055775765 -0.21583472 0.14819495
-0.06297497 0.027675632 0.04786923 -0.11430262 -0.09172533 0.12308562 0.049345948 0.079853855
-0.0035699976 -0.15288244 0.15443896 0.08875466 0.16625647 0.12537283 -0.021829935 0.08036989
-0.01600875 0.08497081 0.07302304 -0.087463394 0.005826706 -0.14561902 0.04549686 -0.15578263
