plugins/AMP-Net_TIP/results/AMP_Net_K/1/6/best_model.pkl (torch_old, 563976 bytes, 44 tensors)

A f4 [11, 1089]
00000000: 94ec f93c 0e38 88bc 4074 9ebc 23ae 283b
00000010: ef7f 40bc bb59 583c 0e4e d6bc 2951 d93c
00000020: 3589 813c e762 a0bc d4ce a73b 1c52 153b
00000030: 9e81 44bd 8e8e d23c 7ee2 83bd f68f 233d
00000040: ce15 0f3d 6dd3 a73c 70f9 ddbc b16e a4bc
00000050: 4939 823c d8b0 473c abfe 8cbd b1da 89bc
00000060: ea7c 2b3d af84 523d 4053 ef3b 2855 83bd
00000070: 39af 3cbc f87a 78bd a20a 93bc e97a 753c
00000080: 63ae ebbc 0ca9 d93c 691a 8a3c 7ee2 2dbd
00000090: 8487 c93c ec25 95bc f4fd 143d d0e9 2b3c
000000a0: 7e9e 0ebc c019 a13a 456e 0d3d 5edd fbba
000000b0: 4165 c43c 3ac3 103d d895 09bc f2b8 883c
000000c0: 9e1b 0b3c 53f6 773c 9e03 03bd 635c 28bc
000000d0: 7a4f 8abd a132 81bc 9f7e efbb b2dc b9bc
000000e0: bbf2 e0bc 89ad 15bd f9d6 e33b a620 6d3d
000000f0: 88ed 973c f0d4 693d c815 19bc 222a 5cbc
00000100: 8eaf 543d 1558 af3c 8c4c 4f3c d5c2 15bb
00000110: 50e6 2d3c 40b9 033c 713e 413d cfe1 a2bc
00000120: 9657 cbbb fa20 89bd 4780 d03c 9d8f 8dbc
00000130: 637c f3bc 3bf4 8fbc aaa9 963c f00e 473d
00000140: e11d ac3c 74fb 6a3d 1f01 bfbc 627c a23b
00000150: f996 9cbd ba02 7a3a dd5c a6bc d423 9b3d
00000160: ac19 b13b 3579 28bd 9913 ccbb 7b7a 85bc
00000170: a927 da3c 0f95 2bbd 9f42 133b 112e 66bd
00000180: 2ae4 9a3c 8996 043b cc6c 25bd 7d44 453b
00000190: aa46 00bd c72f f33b ffa0 b5bc a14e a13c
000001a0: cad9 dfbb 8b48 fe3b 1eef d73c 6f0e 73bc
000001b0: d745 03bc 2720 8d3c 3b6f 07bd 497d 6bbc
000001c0: 1bc4 a2bc ef00 04bd 7c83 b53c 6b34 bbbc
000001d0: e30f dd3c d729 c0bc de29 0cbd f317 7b3d
000001e0: b7d5 38bc cf50 123c 5439 673d ecee 1c3c
000001f0: e7c0 23bd 27d2 f1ba a4ec fcbb 2320 8538
00000200: fec9 a33c de27 8abc edb7 6f3c 6693 9d3c
00000210: 8e13 873c eff5 19bc 0a0f 7ebc a8e1 fc3c
00000220: fc72 4e3d 06eb f7bc 32f9 c93c f293 92bd
00000230: a8ad 99bd 33ab 5c3d 8572 a7bb 21e9 94bc
00000240: 0784 b43c eabb eb3c 6954 6cbc a6b8 c4bc
00000250: 154e d83c af6a d1ba 5f06 37bd bcd0 b43c
00000260: edb5 b4bd b1f0 bf3b 2ca0 f0bb 1859 b93c
00000270: 896d 993c 0c83 b1bc d4bb 2bbc 2959 8fbc
00000280: e48a 7b3d d7b6 ecbc c11a 0abd a408 4cbd
00000290: 1a14 83bc 1d2a 193d ffeb 1d3d 07ab 593c
000002a0: 1daa fbbb 5a78 91bd 7260 fc3c d660 4cbc
000002b0: 03ea b4bc 241b 90bc 1c71 9d3b 5fb4 063c
000002c0: f675 c3bc a347 f9bc 55c2 983c 0ad7 0dbc
000002d0: bccb d3ba cdb4 e5bc 6805 353d 89f1 a83c
000002e0: a55b 6a3c 9a3e 8f3b 07f2 4b3d 4c08 1e3d
000002f0: 9db8 d5bc 6250 c43c 3ac1 433c 2cb0 1bbd
00000300: df11 c23c 4b95 40bd e0e5 1d3d 35f4 48bc
00000310: 69bd 923c f457 673c 2066 ce3c 625f 38bc
00000320: 6b77 2d3b d952 c4bc 1c8e b3bc 3155 0dbd
00000330: f36b b6bc 59f2 963c a2ce 9b3c d281 193d
00000340: 0836 d33c 9a9d e5bc 8115 f53c 1b79 92bc
00000350: 96aa 6b3b 3659 123b 7539 72ba bfa0 113d
00000360: a078 a8bc 690a 83bb 670e 313d af9c ba3a
00000370: 719e d7bc 9212 8ebd 59d8 88bc b5d4 bb3c
00000380: f3ed ba3c 5fe8 273d 65ca 553c cf10 683b
00000390: c864 eabc d9aa a83c f685 64bd 57a2 e1bb
000003a0: 0a0f 483c ffa2 263d 74b8 aebc 4a93 2a3c
000003b0: 18b8 bbbb bf3c b33c bcf1 46bd d1fc 353c
000003c0: 1197 67bc 05ec 093c 8713 1f3c 3ae0 123d
000003d0: 1ef7 0bbd cfea 0f3b f4d5 1dbd 7e48 6ebc
000003e0: 3fd2 4b3d 5ab2 d1bc 46bc 223d 7822 bfbb
000003f0: 3f2d a2bc dbce ce3b 94e0 92bc cd0a c9bc
0.030508317 -0.016628291 -0.019342542 0.002573856 -0.011749252 0.013204987 -0.026160266 0.026527958
0.015812496 -0.01957841 0.0051210914 0.0022784537 -0.047975175 0.025702741 -0.06439684 0.039932214
0.034932904 0.020486558 -0.02709648 -0.020072313 0.015896456 0.012188159 -0.068845116 -0.016827913
0.041867174 0.05139607 0.0073036253 -0.06412727 -0.011516386 -0.060664147 -0.017949406 0.014982917
-0.028769678 0.026569866 0.016858296 -0.042452328 0.024600752 -0.01820656 0.036375 0.010492757
-0.00870478 0.0012290999 0.03452899 -0.0019215753 0.023974063 0.035342433 -0.008397542 0.016689751
0.008490471 0.015134412 -0.03198587 -0.010275933 -0.0675344 -0.015771212 -0.0073087956 -0.022688244
-0.027459493 -0.03654245 0.006953117 0.057892464 0.01854588 0.05708784 -0.009343572 -0.01343778
0.051925234 0.021404305 0.012652528 -0.0022851725 0.010613993 0.0080397725 0.04717869 -0.019883065
-0.0062055094 -0.06695743 0.025451792 -0.017280394 -0.029722398 -0.017572513 0.018391449 0.04859823
0.021010341 0.05736871 -0.023315964 0.0049586752 -0.07645983 0.00095371495 -0.020307953 0.07575193
0.0054046717 -0.041131217 -0.006227922 -0.016293755 0.02663024 -0.0418902 0.002247013 -0.056196276
0.018907625 0.0020231328 -0.04038696 0.0030100637 -0.03131739 0.007421467 -0.022171495 0.019690813
-0.0068313824 0.0077601126 0.026359137 -0.014834984 -0.008012257 0.017227245 -0.033065062 -0.014373132
-0.019868901 -0.032227453 0.022157423 -0.022852143 0.026985114 -0.02345745 -0.034219615 0.061302137
-0.011281422 0.008930399 0.056451157 0.009578448 -0.039978888 -0.0018449471 -0.0077186394 6.34792e-05
0.019993778 -0.016864713 0.014631254 0.019235324 0.016488817 -0.009397014 -0.015506515 0.03086932
0.050402626 -0.030263435 0.024654958 -0.071571246 -0.075038254 0.053874206 -0.0051100873 -0.01817757
0.022035612 0.028776128 -0.014424422 -0.024013828 0.02640442 -0.0015977229 -0.04468381 0.022072189
-0.08823762 0.00585755 -0.0073433127 0.022625491 0.018728988 -0.021668933 -0.010481793 -0.01749857
0.061411753 -0.028895779 -0.03371692 -0.049812928 -0.016000796 0.037393678 0.03855514 0.013285405
-0.007680191 -0.07103033 0.030807707 -0.012474259 -0.022084242 -0.017591067 0.0048047435 0.008221715
-0.02385996 -0.030429667 0.018647352 -0.008657226 -0.001615874 -0.028040314 0.04419461 0.020622985
0.014304076 0.0043714764 0.049791362 0.03858213 -0.026089007 0.02396411 0.011947924 -0.038009807
0.023690162 -0.047017377 0.038549304 -0.012265255 0.017912583 0.014120091 0.025195181 -0.01125321
0.0026468884 -0.023965286 -0.021918349 -0.034505073 -0.022268271 0.018426107 0.019019429 0.037477322
0.0257826 -0.028029252 0.02991748 -0.017880013 0.0035959831 0.0022331006 -0.0009240129 0.03555369
-0.020565331 -0.0039990437 0.043226626 0.0014237369 -0.026320668 -0.06937136 -0.016704725 0.022928575
0.022818541 0.04099309 0.013048743 0.003541041 -0.02861251 0.020589279 -0.055791818 -0.0068858075
0.012210617 0.04068279 -0.021328188 0.010411093 -0.005728733 0.021879552 -0.04857038 0.011107639
-0.014135138 0.008418088 0.0097092455 0.03585837 -0.034171216 0.0021960025 -0.03853412 -0.014543651
0.049761053 -0.02559774 0.039730333 -0.0058329664 -0.019796966 0.00631128 -0.017929353 -0.024541283

Q f4 [1089, 11]
00000000: 47c8 763d 7d6d 42bd 03e5 8e3d f6f3 d1bc
00000010: 572d 773c 962e 19be a240 adbd 0489 e1bc
00000020: cee4 3e3d 4f3a c23d c04a 25bd c404 09bb
00000030: 7da9 9f3d 3658 c73d 9bdd 8c3b 3868 be3d
00000040: fc9a 17bc c2d8 eabd d489 18bd 2950 ae3d
00000050: c13b cb3d f26f 5bbd 8d7c 8e3d 0c58 2e3d
00000060: 3b47 e73d 040f 0abc 4326 cc3d b53c edbd
00000070: e985 45bd 4ebd 2bbd b80a 363d a737 383e
00000080: 74c4 2dbb 3e92 8cbd b73c 39bd 0ca9 bf3c
00000090: 2fc8 6c3c 8925 bf3c 3f82 a8bd acb9 59bc
000000a0: 8fa7 2bbd fed9 c1bc 72d9 db3d c6d1 56bd
000000b0: 6c03 a83d dd04 df3d 94b8 24bc 102f 0cbc
000000c0: cb3f 4c3c 4179 9f3d 6000 3abc 4261 b93c
000000d0: fa86 593c ea47 693d 77f8 b9bc b971 7fbd
000000e0: d190 6a3d 0558 603d adeb 3cbc 7e10 caba
000000f0: 8f3a b33d 8229 babb d280 183b bc67 adbc
00000100: 40cf 893d 8d56 703c 3766 f2bc 9efb b03d
00000110: 33e8 f43b 50a6 66bc 9588 2abc 7282 0e3c
00000120: 0e9e 77bd d55d 14bb 10fd 1bbd 9928 a03d
00000130: 9d58 0b3c 32d4 0c3d 0de0 843c b5c9 78bc
00000140: fe2a 2a3d c02d 083d 587e b83d 1040 0cbd
00000150: dfbc 49bd 63b8 04bd e388 b43d 8b69 db3c
00000160: 4ac8 d63b 2cac 13bd 5479 54bd b143 193d
00000170: b887 e63c d4a5 31bd d852 58bd 7f10 09bd
00000180: 2c78 90bc a67f e83d 86d4 f73c 4592 ff3b
00000190: b561 2fbd df83 debd fc1c bfbc 155e 3d3c
000001a0: bab4 babd f858 8fbd 5458 00bd deb4 923c
000001b0: dc98 333e 9735 b7bb 0a4a 7ebd 0ee8 f9bb
000001c0: 73ae a8bd 15ef 503d 75dd 8f3d 3a35 dc3d
000001d0: f92c e3bc e0dc 0fbd f0d3 b5bc 923c c33d
000001e0: 89f9 913d ca7e 3d3d dec5 ca3c 43e1 a13d
000001f0: db12 303d 98f5 913c 28a1 133e c5fb 983a
00000200: b04b 0cbd c750 c4bc 0fb5 443e bb4a 363d
00000210: a730 95bd 3883 513c ab3f 15bd 59d2 203d
00000220: 4373 5cbd 56ae 0cbd 3d07 2bbd dfcd 9abd
00000230: 82aa 8dbd 2a6e 0f3e e83f 7c3c 611a a1bd
00000240: 2000 933d d739 e0bd e6f2 243d dc7e f93c
00000250: deea a3bd 65a3 7dbb 2e4d 78bd 83f5 91bc
00000260: 552c b53d 2ab7 e93a 165e c6bd a8f2 a23d
00000270: a1b7 9bbd a329 8d3d ff69 343c 155b 82bd
00000280: 3177 d6bc f835 7ebc 9f55 59bd b167 ee3d
00000290: 02fa a0bd ddce 34bd 3ad2 a33c 133d f8bc
000002a0: 694f 3e3d 5a01 293d 507e dfbd 31bd 10bd
000002b0: 2a38 afbc b0bc bebd 7363 d83c bdc8 843d
000002c0: 324a a9bc d92b 69bd 4cf5 8dbd 7aec e43c
000002d0: 9396 efbb 5b5c da3c 70a9 6bbd 4294 a2bd
000002e0: 798f b5bd b946 3e3d eeeb 23bd 5e21 ebbc
000002f0: 95ee 09bd 5019 ce3c f951 a43d 1cfb 3c3d
00000300: 2124 543e 4d48 b7bb 94d6 03bd 13aa 4bbd
00000310: 6790 923d c457 b7bc 2c9d 52bd 529e 18bb
00000320: 2272 9f3c f4cb d23c 54a4 b83d 0d33 ea3d
00000330: d0c7 8cbd 0a28 5ebc 760d 94bd 46b8 8b3d
00000340: 08ff bcbc 3a37 8cbd 5b34 91bc 583f d3bd
00000350: 6a3b 05bc 091c 91bc e9a3 acbd 1296 e5ba
00000360: e6ea 20bc a020 8ebb 1365 dc3c ee23 c0bc
00000370: 05ef 9f3b b444 46bd e250 a5bd 15d5 53bc
00000380: dfcb 8d3d 86dc 0b3d 3521 0abd b6e2 efbc
00000390: 478f 57bd e6de 1cbc 7f6b 5eba 3c8f 56bd
000003a0: de49 59bd 4b02 e3bd 5821 6f3c e653 973d
000003b0: 8e53 073e 89df 8ebd b4b7 80bd 3b4c 2ebd
000003c0: 4ebf 0b3d 7519 823c a492 05be c04b f5bc
000003d0: f982 aabc 1f4c d43c e9ac 473d 706b 3bbb
000003e0: 0d3f 89bd 88ad 52bc 94f3 bebd 9c81 f53c
000003f0: b8ec c03c fbba 02be 72b9 99bc caba 6c3c
0.060249593 -0.047467697 0.06977274 -0.025629025 0.015086493 -0.14959177 -0.08459593 -0.027531154
0.046604924 0.09483778 -0.04035449 -0.0020907382 0.07795999 0.09733622 0.0042988784 0.09297222
-0.00925326 -0.114671245 -0.03724082 0.08511383 0.099235065 -0.053573556 0.0695735 0.042564437
0.11292883 -0.008426432 0.09968235 -0.115838446 -0.04822341 -0.041928582 0.044443816 0.1798998
-0.00265148 -0.06863831 -0.045223918 0.023396038 0.014452024 0.023333328 -0.082279675 -0.0132888965
-0.041907843 -0.023663517 0.10734834 -0.05244615 0.08203778 0.108895995 -0.0100537725 -0.008556142
0.012466381 0.07786799 -0.0113526285 0.022629384 0.01327681 0.05695335 -0.022701485 -0.062364314
0.057267014 0.054771442 -0.011530799 -0.0015416292 0.087514035 -0.0056812176 0.0023270142 -0.021167628
0.06728983 0.014669073 -0.029589755 0.08641742 0.0074739694 -0.014077738 -0.01040854 0.008698093
-0.060453467 -0.0022638936 -0.038083136 0.078202434 0.008505014 0.034382053 0.016220117 -0.015184809
0.041544907 0.033246756 0.09008473 -0.034240782 -0.049252387 -0.032402407 0.088151716 0.026783725
0.006554638 -0.036052868 -0.05187352 0.03741807 0.028140888 -0.043371037 -0.05281338 -0.033462998
-0.017635427 0.11352472 0.030252706 0.007799419 -0.04281779 -0.10864996 -0.02332925 0.011558075
-0.09116502 -0.06999391 -0.031334236 0.01790851 0.1753878 -0.005591105 -0.062082328 -0.00762654
-0.082363985 0.051009256 0.070246615 0.1075234 -0.027731406 -0.035122752 -0.022195786 0.09533037
0.07127673 0.046263494 0.024752554 0.079042934 0.042986732 0.017817304 0.14416945 0.0011671713
-0.03425187 -0.023964299 0.19209693 0.044504862 -0.0728467 0.012787633 -0.03643767 0.039263103
-0.05382086 -0.034345947 -0.04175495 -0.07558798 -0.069172874 0.14006868 0.015396096 -0.078663595
0.07177758 -0.10948532 0.04027071 0.030456 -0.08003782 -0.0038702127 -0.06062048 -0.017817264
0.08846346 0.0017831076 -0.09685914 0.07956439 -0.07603384 0.06892707 0.0110116 -0.06365029
-0.026179882 -0.015515797 -0.05306017 0.11640871 -0.07860185 -0.044142593 0.019997705 -0.03030256
0.04646245 0.041261055 -0.10912764 -0.035336677 -0.021389086 -0.09313333 0.026414609 0.064836
-0.020665262 -0.056926582 -0.06931552 0.027944792 -0.007311651 0.026655367 -0.057534635 -0.07938434
-0.08865256 0.046454165 -0.040019922 -0.028702434 -0.033674795 0.025158554 0.080234475 0.046137914
0.20716907 -0.0055933357 -0.03218706 -0.049722742 0.07156449 -0.022380717 -0.051419422 -0.0023287726
0.019463602 0.025732018 0.09015718 0.114355184 -0.06874049 -0.013559351 -0.0722913 0.06822257
-0.023070827 -0.06846471 -0.01772516 -0.10314816 -0.008131841 -0.017713564 -0.08429701 -0.0017516038
-0.009821629 -0.0043373853 0.026903665 -0.023454633 0.0048807883 -0.048405364 -0.08072068 -0.012929221
0.06923651 0.034145854 -0.033723075 -0.029282909 -0.052626874 -0.0095746275 -0.0008484646 -0.052382693
-0.05304896 -0.11084422 0.014595352 0.07389049 0.13215467 -0.0697623 -0.062850386 -0.042553168
0.03411799 0.01588128 -0.1304422 -0.029943347 -0.020814406 0.025915204 0.048748884 -0.0028597973
-0.06701479 -0.012858756 -0.093238026 0.02996903 0.023550376 -0.1276664 -0.018765185 0.014448831

denoiser_1.D.0.weight f4 [32, 1, 3, 3]
00000000: cfa6 b43e 9cd8 bf3e 7934 99bd dbd0 64bd
00000010: e7c0 40bc 784e bf3e 7493 ab3e 2b25 e7bc
00000020: 7390 4c3e da23 b2be 4310 bc3e 8636 e2bd
00000030: 7e8c fd3d 10fc 4cbe a0ed 78be 14fb 153e
00000040: db86 6b3e 1e44 823d 3aba d1be b70b b9bd
00000050: ad73 62be 06e7 1d3e 2057 90be 598c c7be
00000060: a0c3 233e 8520 6d3e 388d c63d 8e3c 8b3e
00000070: 07d7 dcbd d30f bbbe 90cd 69be 2816 c73d
00000080: e645 0ebe 675f 5abe afc4 573e 3fb2 bb3e
00000090: 0f0e 453e f54c 893e dd82 edbd bd82 9bbe
000000a0: 4e82 243e 3ed1 df3e c107 923c 0b0b 8abd
000000b0: 9f41 09bf 0a57 4b3d c376 d53d 8708 603e
000000c0: d341 84bc 2973 8d3e 6c09 2e3e 9a26 22be
000000d0: 51f4 453e 4827 7b3e 8a17 8e3e c395 993e
000000e0: 1562 373e 63d4 a2bd e9fd 55be 6d4e 7d3e
000000f0: 953e 8bbe 02f1 39be 2881 4bbc 9098 83be
00000100: 34bc 323e 2814 033e ae09 843e 27cc 533e
00000110: 7b76 e3bd 04c6 10bf 06c8 efbe 93d8 a5bd
00000120: 0a99 2bbf 73b1 1c3e aa33 21be bdf4 153e
00000130: 89ab 843e 1a36 983e d9be a9bd 7fe0 1cbf
00000140: a7c5 d8be ed04 a1be d6ff 3abd 40a6 083e
00000150: 70d5 f83d 592e 6d3e 36ca c4be 3eee ee39
00000160: 4d3b 5fbe 1c1f 873e 9904 0cbf 8ac0 53bd
00000170: 2468 773e c100 6c3e 12c0 00bf 4d97 a93e
00000180: 78dd c03e ddd7 3cbb b50f dfbe eb48 e9be
00000190: eace 53bd 4992 f43d d98a 773e 1b7b 473e
000001a0: 92e4 4a3e 4e82 0fbf e5be 27bf b7e6 843e
000001b0: a704 04bf 0b5d d43d 8529 e9be f813 c53c
000001c0: a8ac 9c3e 3c91 ddbe 7e72 d7be 83e9 3d3d
000001d0: 3bb6 853e 40b0 8bbe 24f5 033e 1c66 663d
000001e0: d5fd aa3e b2fa 5f3e 608c ebbd 08e4 0fbf
000001f0: aa27 f6be 8dae 94bd dade f33e 06ef 9e3e
00000200: 4ecf 863d a81f 9d3e cbc7 7bbe 8b51 f73e
00000210: 6e85 843e 76ae 3b3e e1e3 9c3e 9b96 4f3e
00000220: f464 513e 98a0 a63e bf57 773e 62a2 76be
00000230: 122a b33e d63e f33d b5b9 e43d e724 8a3e
00000240: 4b23 a2be 7c72 ddbe c664 99be c274 a43d
00000250: 2380 d63c e571 08be d6ca a43e d00e 85be
00000260: 495f fd3d 211f 07bf 667b e4be 1aa7 3fbe
00000270: 3885 6ebe 52d4 093e eb45 dfbe 8b31 fdbe
00000280: 5d17 813e 7f01 4e3d b6d6 9dbe 1076 86be
00000290: 32d2 f1be 4cc1 963e fac8 ce3c c47b b4be
000002a0: 1c98 a2be 032c 86be f17f 2bbc 3a95 643e
000002b0: 9024 a53c 96fe 9bbe 7005 d63d f8f4 1f3d
000002c0: 332b 15be 300a 41be 4cf7 83bd bc1c bfbd
000002d0: 4fab 203e 2e22 debd c1f5 b63e da62 923e
000002e0: 0e67 78be 5ba5 773e 8374 6e3d 4cb3 993d
000002f0: 9811 ac3e e4af bb3e d98a c8bd cec5 50be
00000300: 4f1b 4c3e bb74 f8bd 020e bdbe e502 df3d
00000310: de3d bbbe fbb4 8dbe 08fa 3ebe 5c8a bebd
00000320: 9cba b03d c0d2 fabd e617 f8bd b08f aa3c
00000330: 24a1 f13d 00b7 9e3a fcbe 89bd a083 5a3d
00000340: a9dc 5a3e 6421 a3be 0819 d5be 887c a93e
00000350: 04d0 41be 1359 d4be b9c2 ff3e b6a9 213e
00000360: 81f6 b23e 81d6 26be 248d 183e a2ee 8fbc
00000370: 39f3 a63d 0891 3cbe 188b af3e 6e21 703e
00000380: 3425 a93e ce27 e13c c3b6 80be 6634 3a3d
00000390: 7072 a8be c00c 6a3e 9c0e dbbe aa59 16be
000003a0: 75b2 903e e2ab 94be 9964 5bbe 3b47 2e3e
000003b0: d8a6 113e f344 c83e 9c2b c53e ee9f 92bd
000003c0: 3081 153e ba79 36bd 3f0d a83e dbf6 203d
000003d0: b3b2 1a3d c725 133e 0b35 8dbe 7301 b2be
000003e0: 437e 6dbe 2fd9 58be 72b2 23be dfde c6be
000003f0: 0f83 09bf f19a c63e 76fe 83be cc1a ae3e
0.35283515 0.37469947 -0.074807115 -0.055863243 -0.0117647415 0.37364554 0.33510935 -0.028215965
0.19976978 -0.34792978 0.36731157 -0.11045556 0.123803124 -0.20018029 -0.24309397 0.1464656
0.23000662 0.063606486 -0.40962392 -0.090354376 -0.2211444 0.1542016 -0.2819147 -0.38974264
0.15992594 0.23156936 0.09694904 0.27194637 -0.10783201 -0.3653551 -0.22832322 0.09721023
-0.13893852 -0.21325456 0.21071123 0.36659428 0.19243644 0.26816526 -0.11597226 -0.30373183
0.16065332 0.43714327 0.017825963 -0.067403875 -0.53615755 0.049643554 0.104230426 0.21878253
-0.016144669 0.27626923 0.16995782 -0.15835038 0.1933148 0.24526703 0.27752334 0.29997072
0.17908509 -0.07950666 -0.2089764 0.24736948 -0.27196184 -0.18158343 -0.01242093 -0.25702333
0.17454606 0.12800658 0.25788635 0.20683347 -0.11106583 -0.5655215 -0.46832293 -0.08097949
-0.67030394 0.15302067 -0.15742365 0.14644141 0.2591212 0.29728776 -0.082883544 -0.61280054
-0.42338297 -0.3144907 -0.04565414 0.1334467 0.12150085 0.23162211 -0.38435525 0.00045572402
-0.21799965 0.26390922 -0.54694515 -0.05169729 0.2416082 0.23047163 -0.50293076 0.33123246
0.37668967 -0.0028815188 -0.4356667 -0.45563444 -0.051711 0.11941964 0.2417406 0.19480555
0.19813755 -0.56058204 -0.65525657 0.2595727 -0.515696 0.10369309 -0.4553949 0.024057373
0.30600476 -0.43274868 -0.42079538 0.046365272 0.26115593 -0.27282906 0.12886482 0.056249723
0.33396783 0.21872976 -0.11501384 -0.56207323 -0.48077136 -0.072598554 0.4763096 0.31041735
0.06582509 0.30688214 -0.24587934 0.483044 0.2588305 0.1832827 0.30642608 0.20272295
0.20448667 0.32544398 0.24154566 -0.24085382 0.34993035 0.118772194 0.11168233 0.2698128
-0.3166755 -0.43251407 -0.29959697 0.08030082 0.026184147 -0.13324697 0.32186002 -0.25987864
0.1237169 -0.52781874 -0.44625396 -0.18716088 -0.23293006 0.134599 -0.4360803 -0.4945186
0.25213137 0.050294396 -0.30827874 -0.2626195 -0.4723068 0.2944435 0.025242317 -0.35250676
-0.31756675 -0.26205453 -0.010467515 0.2232255 0.020159036 -0.3046767 0.10450256 0.03905198
-0.1456726 -0.18851542 -0.064436525 -0.093316525 0.15690349 -0.10846363 0.3573437 0.28591043
-0.24258062 0.24184172 0.058216583 0.07504901 0.33607173 0.3665763 -0.09792108 -0.20387957
0.19932292 -0.121316396 -0.3692475 0.10889224 -0.36570638 -0.2767714 -0.18650067 -0.09303734
0.08629343 -0.122472286 -0.12113933 0.020820469 0.11798313 0.0012108982 -0.067258805 0.053348184
0.21373238 -0.31861413 -0.4162066 0.33102822 -0.18927008 -0.41474208 0.4995325 0.15787396
0.34953693 -0.16292764 0.14897591 -0.017569844 0.0815186 -0.184147 0.34285808 0.23450252
0.33036196 0.0274848 -0.25139436 0.045460127 -0.3289981 0.22856426 -0.42784584 -0.14682642
0.28261152 -0.29037386 -0.21425094 0.1701936 0.14223802 0.39115104 0.38509834 -0.071594104
0.14600062 -0.04454968 0.32822606 0.03929792 0.037768077 0.1436988 -0.2757953 -0.3476673
-0.23192696 -0.21176599 -0.1598604 -0.38841912 -0.53715605 0.38790086 -0.25780076 0.3400482

denoiser_1.D.0.bias f4 [32]
00000000: 8df9 00ba 17c2 f83b 4500 c83d 7c86 a83d
00000010: 5083 b7bd 7066 dcba b153 9e3d c1a7 5bbd
00000020: 30d2 113d c0e4 8c3c c125 e0bd 9dd2 763c
00000030: 57cf 4dbe c4cd 50bd a534 1dbe 0e43 6e3d
00000040: 6821 1e3e 0573 6bbd a1ab a53d 9a3d aabe
00000050: c107 92be 8b3a 5a3d dc8a a3be ea28 82be
00000060: 3f47 673d 4aef 853d 01bb 25ba 2711 273e
00000070: 1b44 66bd 5ccb 693d 9e36 933d e8dc 5c3d
-0.00049199985 0.0075914967 0.097656764 0.08228776 -0.08960593 -0.0016815197 0.077308066 -0.05362678
0.03560084 0.01719892 -0.10944701 0.015064863 -0.20098625 -0.050977483 -0.15352114 0.058169417
0.15442431 -0.057482738 0.08089376 -0.33250123 -0.2852154 0.053278487 -0.3194188 -0.2542184
0.05646443 0.065397814 -0.0006322116 0.16315137 -0.056217294 0.057078704 0.07188152 0.05392161

denoiser_1.D.2.weight f4 [32, 32, 3, 3]
00000000: cbdf 3f3d 1337 dfba 4de9 77bc 24b0 ca3d
00000010: bdff 343d a0d0 913d 8c95 153e 73b7 8a3d
00000020: b184 47bd aaef a6bc cc8c 603d 3568 90bc
00000030: d0aa 833c 906c 4a3d a002 3fbd 1800 4ebd
00000040: 0d90 84bd 0d61 c8bd 0445 9bbc 2270 ce3d
00000050: 1571 d5bc 64f1 afbc 383a 993c 13ba 9cba
00000060: e864 dbbc c424 f0bb 2191 843c 6554 df3c
00000070: 0ea6 ff3c 2488 103c db0f f03d 91eb 163c
00000080: 092e 67bc b8f0 8b3c 6dd5 993d c6d3 7fbd
00000090: 824e 43bd c21a 88be 5733 87bd 1958 e93d
000000a0: f735 89bd 27e5 4abd 8dbf 95bc 6a5f d5bd
000000b0: e522 183e a407 8f3d 9a49 4f3c 4dda 8dbc
000000c0: 531f 633d 265f 6d3b e88d a9bc 790d 953d
000000d0: 547c c83c 6234 d03d 77fb 303d 93e9 a43c
000000e0: 88f8 68bd 40e2 123d 7371 d53c 09f3 473c
000000f0: d0e7 09bc 1f85 853d f978 8abd ad70 c13d
00000100: e4e4 0c3b 2f49 81bd 9ea1 9b3d a615 63be
00000110: 400f 8dbe 505e 94bd 04f3 17bc ce4d c53c
00000120: acdb 0cbe 00db cabd e11d 08bc 304f 5abe
00000130: b296 b0be dc37 18be 5c3a b2bc b510 d0bd
00000140: 0250 0abe 70d9 2c3d 9b04 a5bb a5c1 533d
00000150: 6baa a2bc b96b df3c 9718 cabc 9a11 1cbd
00000160: 3d9a 833d da00 e03c cf67 253e 3bc8 76bc
00000170: 325b 563e b26a 0fbd ad85 55be 06b7 663d
00000180: 2e6a 5fbd 7b8c 2abd ce84 903e e65d 68bd
00000190: cbd7 d3bd e601 93bd 6a78 043d 939c 8abd
000001a0: ef4e 3cbe 2c45 f73b 9ddd 59bd 6687 c4bd
000001b0: b6d0 5d3e 53fd a83b 23ce 8a3d 74f5 3bbe
000001c0: c9f0 55bd 02bd 6fbd 9594 203c 7071 1bbd
000001d0: 0bb9 a93e 0a8e 043e aaab 723c f540 93bd
000001e0: f758 f23d 7d6e 44be 7ac5 2ebe 2be1 3cbd
000001f0: a0c1 853b bd8b e83d d269 b7bd c16b 22bd
00000200: c41b 023e 20b9 dbbc ba34 a23d 9d0e 7f3d
00000210: d9c5 07be 9f86 953d 1ae0 9dbd d5fc 653d
00000220: d589 863c 104f 81bd 81df ed3c 08e2 e83c
00000230: 81ea 893d 05be 843d 4fbb 23bd 8ec8 61bd
00000240: e4ac be3c fc99 a43b 1b7d 4e3d 3711 4bbc
00000250: 9f1f 6d3d 6b51 45bd 79c5 803c b33c febc
00000260: e7fd 50bc 16ba cbbe a568 aabe d99d 75be
00000270: 5426 7ebe 311c 32be 07ac 72be 4f89 9cbe
00000280: 30dc 29be 58a8 bebe 6759 bc3d d48d 443d
00000290: 3eac 1b3c 696e 813c 8dc5 92bd a0a6 073a
000002a0: fe26 94bc cbeb 3dbd aaf9 a1bc 95e6 473d
000002b0: d235 54bd 9149 6e3d 0eea aa3c 3cc5 eabc
000002c0: 63ce 503d 60b9 183b 00e7 56bb f7ec 3abd
000002d0: b3c0 963d 0896 dc3c d3ed 2bbd e79e 89bd
000002e0: 1ea9 433c 34ea 44bd ba25 5dbd 88fd 443d
000002f0: 87d1 7bbd 3e01 2d3b 0df7 5f3d 25df 15bd
00000300: 96af abbd 8114 f6bc b833 93bd a59d fbbd
00000310: 3f36 dc3c 8069 af3c 904b b9bc 4849 16bd
00000320: a424 293c 3cb2 043c e81e 1cbd fc3e 133c
00000330: 2b40 5f3d a391 6f3d 7cbf efbc 5f1b d23d
00000340: 207d 5c3c a327 bf3c bc17 bcbd d393 5ebd
00000350: f8bb 8d3e bf26 00be 8874 7abe 50ca 8a3e
00000360: c597 b8bc 2d27 623c 0a19 c8bc 0d3a 82bc
00000370: 140b 773d 3e50 5fbc 58e2 dbbc 4d97 263d
00000380: deea 1a3d b582 28bc a8cb 183c 8749 02bd
00000390: 218a 963d 5721 933d 170d 453d 9c0d c2bd
000003a0: 191e a53d cf7d 983c f9fc 963d 3d08 6abb
000003b0: 62e7 3abb d724 af3d ed73 963d 20ca 8bbd
000003c0: b222 1e3c a695 923d ebc1 a13c 8915 51bc
000003d0: 82e4 cb3c 8819 84bd 89f1 35bc d895 d1bc
000003e0: c0ee 43bd 1b1f 17bd a87e 353d 0bc2 a4bd
000003f0: b977 023c 06d0 13ba 1d9f e1bd 7dd4 6cbd
0.046844285 -0.0017029963 -0.015131307 0.098968774 0.044189204 0.0711987 0.14607829 0.067732714
-0.04871053 -0.020377953 0.054821774 -0.017627815 0.01607266 0.04941994 -0.046633363 -0.05029306
-0.06472788 -0.09784136 -0.018953808 0.100799814 -0.026054898 -0.021477409 0.018704519 -0.001195731
-0.026781514 -0.0073286016 0.016182484 0.027261922 0.03120711 0.008821521 0.11721774 0.009211437
-0.014110097 0.017082557 0.07511411 -0.062457822 -0.047682293 -0.26582915 -0.06601589 0.113937564
-0.06699746 -0.049534943 -0.018279815 -0.104185894 0.14857061 0.06983879 0.012651825 -0.017316008
0.055449795 0.0036220043 -0.020697549 0.0727796 0.024473347 0.10166241 0.043208566 0.020130908
-0.056877643 0.0358603 0.026055073 0.01220394 -0.008417085 0.065195315 -0.06761355 0.09445319
0.0021498734 -0.06312787 0.075991854 -0.22176227 -0.27550697 -0.07244551 -0.009274248 0.024084952
-0.13755673 -0.09905052 -0.008307905 -0.2131927 -0.3448997 -0.14865059 -0.021756344 -0.101594366
-0.13507083 0.042199552 -0.0050359494 0.051698346 -0.019856652 0.027273046 -0.024669928 -0.038102724
0.06425903 0.027344156 0.16152881 -0.015062387 0.20933226 -0.035013862 -0.20851775 0.05632689
-0.05454462 -0.04163788 0.28226322 -0.056730174 -0.103438936 -0.071780965 0.0323414 -0.067681454
-0.18389486 0.0075460877 -0.053189863 -0.09596138 0.21661648 0.0051571517 0.06777599 -0.18355352
-0.052231584 -0.05852986 0.00980105 -0.03794998 0.3314899 0.12944809 0.014811436 -0.07190124
0.11833375 -0.19182773 -0.17067519 -0.046113174 0.00408192 0.11354778 -0.089557305 -0.039653543
0.12705904 -0.026821673 0.07920213 0.062269796 -0.13259067 0.073010676 -0.077087596 0.056149323
0.016423145 -0.06313908 0.029037239 0.028428093 0.06734181 0.06481556 -0.039973553 -0.055122904
0.0232758 0.005023239 0.05041228 -0.012394241 0.057891484 -0.04817335 0.015719162 -0.031034803
-0.012755848 -0.3979041 -0.33282962 -0.23985995 -0.24819309 -0.17393567 -0.23698436 -0.30573508
-0.16587901 -0.3723781 0.0919674 0.04798682 0.009501515 0.015799718 -0.07166586 0.00051746704
-0.018085 -0.046367448 -0.01977237 0.048803885 -0.05180914 0.058175627 0.02086356 -0.028658502
0.050978076 0.0023303851 -0.0032791495 -0.045636144 0.07360973 0.02692701 -0.041974854 -0.06719761
0.011942176 -0.048074916 -0.053991057 0.04809335 -0.061479118 0.0026398445 0.054678965 -0.03658976
-0.083831 -0.030039074 -0.07187599 -0.12285928 0.026881335 0.021412611 -0.022619039 -0.03669098
0.010323677 0.008099135 -0.038115412 0.008987185 0.054504555 0.0584885 -0.029266112 0.10259127
0.0134575665 0.02333433 -0.091842145 -0.054340195 0.2768247 -0.1251478 -0.24458516 0.27107477
-0.022533307 0.013803286 -0.024426002 -0.015896821 0.0603133 -0.013629971 -0.026841328 0.040671635
0.037821643 -0.010285069 0.009325899 -0.031808402 0.07350565 0.071840934 0.048108187 -0.09475252
0.08062381 0.018614678 0.073724695 -0.0035710477 -0.0028519263 0.085519485 0.0734633 -0.06825662
0.009651827 0.071574494 0.019745788 -0.012761482 0.024889234 -0.06450182 -0.01110495 -0.025584146
-0.04783511 -0.0368949 0.044310242 -0.08044823 0.007963114 -0.0005638603 -0.110166766 -0.057819832

denoiser_1.D.2.bias f4 [32]
00000000: 8191 8d3c 030e dd3b 8740 1e3d f258 a43c
00000010: f655 4dbd 66fc 41bc d717 e5ba 5a13 d33b
00000020: 7417 80bb b37e 183d 580b e1bc 9266 263d
00000030: eab9 64bc a37f a9bc e27b c1bb 9d3e 2bbd
00000040: 769c fb3b a65f eabc 1078 c53b fc3b 3c3d
00000050: b783 3abb 1cee 3cbd 9ce7 1fbd cf48 d6bc
00000060: 9a85 98bd 842b 973b 3550 933d d462 2abb
00000070: 406e febc ad85 f33c de3a 193d 83d6 7ebc
0.017281296 0.006746055 0.038635757 0.020061944 -0.050130807 -0.011839962 -0.0017478418 0.006441516
-0.003909046 0.037230205 -0.02747123 0.040625162 -0.013960341 -0.020690745 -0.0059046606 -0.04180776
0.0076785637 -0.028610062 0.0060262755 0.045955643 -0.0028459856 -0.046125516 -0.03903924 -0.026157765
-0.074473575 0.0046133418 0.07193033 -0.0025998848 -0.03105843 0.029726828 0.037409656 -0.015554073

denoiser_1.D.4.weight f4 [32, 32, 3, 3]
00000000: 907e c8bc 3a0d e33d 00f9 8fbd 189b 07be
00000010: 5131 29bd 8294 88bd 139c eebd 2d20 c53d
00000020: b4d5 e63c 0c45 7bbd f232 1f3e dd68 1dbd
00000030: f834 1cbe b861 abbc 9b41 01bd 330d 8b3d
00000040: dd13 563d 29e9 1dbe bfa4 d5bc c8c4 763c
00000050: 7830 21bc 21a1 3c3d b265 3cbd 3b4b 43bd
00000060: fa54 bdbd c818 4b3d 9d92 b83d 4a86 e63c
00000070: 2a55 5e3c f2a4 34bd e54f 92bb fdf0 d0bd
00000080: bd4a f13c b002 b8bd 9394 45be 6ac7 02be
00000090: 32d5 1b3d 1187 82bd 370b 1b3d 0131 443d
000000a0: 59d0 7bbd 773e 4abd 811f 19be 35f8 15be
000000b0: 2cd8 8dbd aec7 4f3d 6429 903d c359 123d
000000c0: f544 0abd 77c9 643d 644c e83c f876 38bb
000000d0: d28e b2bb fce6 453d 059e 833d 50d0 02bd
000000e0: dced 9d3d 500e a33d 4408 69bb 3c07 733d
000000f0: aa7e ab3a d3b8 e1bd 3ed6 c1bd 63ef c83b
00000100: 90a0 1f3e 60ee 363e e14c 0ebd 158d 1dbd
00000110: bb28 d43d 4079 f5bd b891 c1bd f927 4a3d
00000120: 0091 853c 541f 36bc 3141 a13d 10c5 f13d
00000130: 0ccd a83d 5cfe d6bd 6066 4ebc 5869 00bd
00000140: f067 b03d cce3 323b 35b9 ea3d 0306 103d
00000150: d2bf 82bd 7173 78bd dca7 983c 24e7 97bc
00000160: 099a 9c3b 143f 81bd 07e9 d13c c56d f239
00000170: 367a d2bd 4d65 853d b96a 5e3d 8e0b 373d
00000180: b242 603c 9f38 6ebd 83eb 9c3d c34f 923d
00000190: 0e12 47bc 3b58 063d dd47 083d 168d 7ebd
000001a0: 7316 eb3b 4334 fdbc 1ce8 14bd daf0 8fbc
000001b0: 646a debc 7aa7 90bd 29d8 8bbd 80f3 a33d
000001c0: b697 96bd b926 afbd e9f4 47bb ea30 773d
000001d0: 772b 0d3e 10e2 b4bc 62a6 423d 1524 263b
000001e0: 6766 30be a124 1e3c eb44 babd 9b0d 5abd
000001f0: 56c9 8b3d 98e4 d5bd 90e1 b03b 4cf8 1d3d
00000200: c1fd 223d 6775 bc3c 6c97 873c 0488 07be
00000210: e15d 6fbd 5501 59bd 9be0 02bd 8ee8 4d3d
00000220: e5ca 0a3c bddf 9e3d 73d8 75bc e72c af38
00000230: d402 3d3b a116 3cbe 76ca abbb 21e5 c1bd
00000240: 4edd 833d 6595 363c 5596 be3d 08a3 dbbd
00000250: 26a2 4b3d 8578 033d e279 9fbd 3b45 dbbd
00000260: 30d3 94bd b674 1bbd 9a17 1c3d bb14 6f3d
00000270: ef43 293c bb1f 18bd fb04 a43d 6c7a 973d
00000280: 72d9 20bd e148 8bbc ee71 37bd 8aa0 923b
00000290: 2033 80bd 4a4b e6bc bef2 c5bc 1c8b a6bd
000002a0: f156 93bc 9c08 1f3d 9bbc 433d 9c20 553b
000002b0: f656 eabd 8df1 c63c 1ef2 26be f314 d83c
000002c0: e644 8b3d eb0c fdbc 8dcd acbd 9bee debd
000002d0: c4b3 40bc bad9 b73d 1b88 62be cc3a f8bd
000002e0: b209 86bd bf83 62bd 2467 d53d 586b 5fbd
000002f0: 0f94 04bd debe 7a3d 4e74 91bd a630 013d
00000300: 1c72 84bd 1356 ab3d cf47 473d e77b 23be
00000310: 84cf a9bd 6f4b 95bd d602 9cbc f21a e1bd
00000320: 27d9 a53d f70a 0abc 1015 923d f2e7 d03d
00000330: fabb 123b c524 90bd e7cf 4ebe e17d 3cbd
00000340: 5c93 14bd 4700 ba3c 9f22 ab3d 8f17 003d
00000350: 14f5 c53c 5b16 eabd 96b5 18bd a93f 4e3c
00000360: cd85 923d 9dc1 ab3d fae0 bcbc 34cd 653c
00000370: 1290 843d a78b 703d de06 a33d 0cb2 783d
00000380: a6cb 74bd 6ae9 293d a761 333c 40d9 d43d
00000390: d0bb 653d 78cb 083d 2a7a 34bc 9c37 80bd
000003a0: 023b 0fbd b64e 1fba 338c 17bc 27e0 053c
000003b0: 484d a83d 8520 dbbc b00b b63d cfb7 1cbd
000003c0: 6243 9cbd 00c1 863d 33a2 013d e01b b4bc
000003d0: f935 c53d 9426 06bc 3caf 183d c2cb 893c
000003e0: 2cf8 163c 1902 07be 51fd f43c 6e9f 7dbb
000003f0: 38d0 c2bd bf2f 1c3d 5993 8ebd d0cc 87bc
-0.024474412 0.11086507 -0.07029915 -0.13242757 -0.041306797 -0.066689506 -0.116508625 0.09625278
0.028178073 -0.061345145 0.15546778 -0.038430084 -0.15254581 -0.02092062 -0.031556707 0.06789627
0.052265037 -0.15420975 -0.026079534 0.015061565 -0.009838216 0.046052102 -0.04599542 -0.047679167
-0.092447236 0.04958418 0.09012339 0.028140206 0.013570109 -0.044102617 -0.0044650906 -0.10202215
0.029454583 -0.089848876 -0.19294958 -0.12771383 0.038045116 -0.06373418 0.037852492 0.047898296
-0.061477993 -0.049375977 -0.14953424 -0.14645465 -0.06925997 0.05072754 0.07039145 0.035730135
-0.03375717 0.055856194 0.028356738 -0.0028147083 -0.0054491544 0.048315987 0.06426624 -0.031936944
0.07711384 0.07961714 -0.0035557905 0.05933307 0.0013084013 -0.110215805 -0.094646916 0.0061320527
0.15588593 0.1786437 -0.034741286 -0.038464624 0.10359331 -0.11986017 -0.09451622 0.049354527
0.016304493 -0.011115868 0.078737624 0.11805165 0.082422346 -0.10497734 -0.01259765 -0.031350464
0.086135745 0.0027296422 0.11461107 0.035161983 -0.06384243 -0.06065697 0.01863473 -0.018542834
0.0047791046 -0.06310859 0.025623811 0.00046239622 -0.10277216 0.06513462 0.054300997 0.044688754
0.013687776 -0.058159467 0.07662108 0.071441196 -0.012150301 0.032798987 0.03327166 -0.06214627
0.007174307 -0.03090871 -0.03635417 -0.017570902 -0.02715034 -0.070631936 -0.06828339 0.08005428
-0.07353155 -0.08552308 -0.0030510968 0.060349382 0.13786112 -0.022080451 0.047521956 0.0025351096
-0.17226563 0.009652288 -0.09095176 -0.05323563 0.06825511 -0.104439914 0.005397983 0.038566872
0.03979278 0.0230052 0.016551696 -0.1323548 -0.05843914 -0.052979786 -0.03195248 0.05027061
0.008471225 0.077575184 -0.015005219 8.353014e-05 0.0028840797 -0.18368007 -0.005242641 -0.09467531
0.06438695 0.011144017 0.09306017 -0.10724455 0.049715184 0.03209736 -0.07786919 -0.10706564
-0.07266843 -0.0379531 0.038108446 0.05836938 0.010331138 -0.037139636 0.080087624 0.07396397
-0.039269872 -0.017002525 -0.044786386 0.004474704 -0.06259751 -0.028112072 -0.0241636 -0.08132002
-0.017985793 0.03882657 0.04778729 0.0032520657 -0.11442368 0.024285102 -0.16303298 0.026377177
0.06800251 -0.030889949 -0.08437643 -0.10885354 -0.011761609 0.08977075 -0.22122233 -0.121205896
-0.06544818 -0.055301424 0.10420063 -0.05454573 -0.032367762 0.06121718 -0.071022615 0.031540535
-0.06467077 0.08366027 0.048652466 -0.15965234 -0.082915336 -0.072897784 -0.019044321 -0.109914675
0.08098059 -0.008425466 0.071329236 0.1020049 0.0022389875 -0.07038263 -0.20196496 -0.046018485
-0.036273345 0.02270521 0.08356213 0.031272467 0.024164714 -0.11430045 -0.03728255 0.01258842
0.07154427 0.08386538 -0.023056496 0.014025975 0.06472792 0.058726933 0.07960294 0.060716674
-0.059764527 0.041482367 0.010948575 0.10393 0.056087315 0.033397168 -0.011015454 -0.06260607
-0.034968384 -0.00060770975 -0.009249735 0.008171118 0.08217865 -0.026748905 0.08888948 -0.03826123
-0.0763004 0.065797806 0.031648826 -0.021985948 0.09629435 -0.008187909 0.03727649 0.016820792
0.009214442 -0.13184394 0.029905947 -0.0038699764 -0.09512371 0.03813147 -0.06961698 -0.016577154

denoiser_1.D.4.bias f4 [32]
00000000: 159a c3bd c8e4 003d 2dc6 da3a a40e 9c3b
00000010: ca51 97bd 712d 8dbc 4fa9 cfbc 8fa2 f4bc
00000020: cc30 64ba 0602 233d 862c e83c 9533 11bc
00000030: 44e1 8fbc 5a98 a13c 4492 a7bc f1f8 e0bc
00000040: a7ca abbc fbf0 bfbd 33ad 28bd 67db 0abd
00000050: bf3e 8fbc 7e8c 413b 2a5a f93c a5d2 e83c
00000060: da44 4f3d b758 2f3d 8c95 30bd 9ffc cfb9
00000070: 6962 123d 7c8d 083d 2122 9c3c 2733 cfbc
-0.09550873 0.031468183 0.0016691141 0.0047624875 -0.07388647 -0.017233582 -0.025349287 -0.02986267
-0.0008704781 0.03979685 0.028341543 -0.008862396 -0.01756347 0.019725967 -0.020455487 -0.027462455
-0.020970656 -0.09372135 -0.0411808 -0.033900645 -0.017485974 0.0029533203 0.030438501 0.028420756
0.05060277 0.042809214 -0.04311137 -0.00039670334 0.035738382 0.033338055 0.019059243 -0.025292946

denoiser_1.D.6.weight f4 [1, 32, 3, 3]
00000000: 5a67 883c b4cb e3bd ed90 47be ea59 aabc
00000010: c433 0ebe 7432 fd3c 1621 e63d f7e6 e43d
00000020: f244 803e 5ea8 66be 33d7 21bd 9e26 05be
00000030: 47ed 35bd fb96 a6be efac 16be 874b 80be
00000040: afbe 0dbe 2e52 893d 43dd 423d 2d77 443d
00000050: 9879 9a3d b31b 613d d3f0 533d 48ac 583d
00000060: ed8a 14bb b45f 23bd 6e7e acbc 2631 163d
00000070: 08c9 3d3d 07ee 5b3d 699d 523d 9d79 36bd
00000080: 9b82 82bd 1b25 08bd a946 89bd d95c 2a3d
00000090: 2e3c 4abe 3068 e8bd ede4 cd3d 43d9 4f3d
000000a0: 6e15 90be 4c40 3bbe 21d0 90be 2ac3 c7bd
000000b0: 3d12 a0bc add0 80bd d50a 8d3d 1acf f53c
000000c0: ad13 123d 930e 8a3c a0c6 df3c 8f5f 54bc
000000d0: 81a3 91bd b43d 6f3d 812b 923d d8c1 343d
000000e0: c81e f43c 804e 35bd 5bef 1cbd 69e0 45bd
000000f0: aad2 4dbc b486 6dbd 9229 513c a31a 51bd
00000100: 061f e23d f7cf 06be f0d4 bc3c f669 d6bd
00000110: 4d0f f23c e04f 9ebd d80c c7bb b6ef 0bbe
00000120: 111a e0be 69d8 f53c 2d5a 0fbe fddf 2cbe
00000130: 67f6 05be 5f58 8a3e b82d 603e 45ce 533b
00000140: a4a2 a93c 663e 9e3b 9c51 c5bd ad76 cebb
00000150: dd0d 08bd 7408 cebd 24bd 2cbb 977b 51bd
00000160: 9a93 873d d905 1abd c98b 68bd 6860 353d
00000170: c136 5d3d 1c20 5fbd 46ae 393d 1386 9d3d
00000180: b350 12bd 83ef 733c aa9f f8b8 f836 b93e
00000190: 8481 b7be 4ba1 c03d 21d3 dabc 4927 8ebe
000001a0: 5bdd 2ebd b31f 92be 47d8 8bbd 1a80 55be
000001b0: 4179 a9ba 60a8 acbd 3bca 353d 3faa 10be
000001c0: 08ce 06bc 5fc2 d43d 5e70 a2bd 9fbd 2fbd
000001d0: 09e1 d43d 1049 bc3c 4f87 623c d947 8dbc
000001e0: 6b9c 423d b956 3b3d 2a62 703c 06da 393d
000001f0: 7b74 2f3d 769d 213d fc6c 933d afca 6c3c
00000200: 6004 0fbd 6c2f 5e3d 23e8 233c aae6 b7bc
00000210: 8c3f 21bd 6ef4 5e3d 1733 57bd 660c 753d
00000220: 30ec 773d 57cf 3dbd a93b b03a c6bf 2cbd
00000230: 7314 903d 9d7e ad3c 96df 00bd 30b8 4dbd
00000240: ec0f ed3d 300c 9abe 90c9 71be 582c 543e
00000250: f579 12be 849a d0be ff80 febd 034a febc
00000260: 0de4 b1bd f6ef 36bd cddc cf3c c087 1dbe
00000270: ae36 50be 8f42 0f3e cfe1 283d 435c 4bbe
00000280: 6e2a 2fbd 00b8 023e fcc5 b0bd 40d1 253c
00000290: 6f4f 58bd 7503 8d3d 4e41 1f3d 84db 8ebc
000002a0: 7044 6b3d efb3 b83c 7ff1 753c ce7f a53e
000002b0: 70bb 25bd aab2 f43d 5300 403e 6a6b 31be
000002c0: 4710 79bd a404 aabd 76ae 8ebe 5399 953d
000002d0: 08d2 903e ec61 893d a7f3 063e 2a09 ed3d
000002e0: ebe3 f2bd b44e b9bd f9dc 4abe 3b1d f3bd
000002f0: a011 f7bd 29d7 2d3e ae68 c6bd 9387 ef3d
00000300: fc96 0ebe cf6c aabc 978f 37be 9209 d7bd
00000310: 3265 03bc 01ad 7f3d 3a10 a83c 42de 4dbc
00000320: 739c b53c f38e 673d 9c6e 3abd f55b 8ebc
00000330: cce5 b13d bab9 7e3d abca 41bd f082 ee3c
00000340: 0112 b8bc eb86 283c d768 20bd 671c 3b3d
00000350: a65b a93c e52e 8b3d 42b2 8a3c 00a0 4fbc
00000360: 80e6 aabd 7af6 8c3d a437 933d a497 263d
00000370: 0468 c9bd 9de3 7abd 9121 823d 2a95 bcbd
00000380: aba1 25bd 84b1 8abc 6086 8fba 6308 94bd
00000390: 993c 25bb 10bd cabb 7a08 933d 2734 053d
000003a0: 957f de3c c5cd 4b3d 322b 7f3d 44f9 0c3e
000003b0: 99ae 3d3c e66f a63d 424a b9bd d291 9a3d
000003c0: 91ef fc3d 78e3 12bc 2deb eb3d a3a4 66be
000003d0: e1c3 2b3d 4f6d d3bc a03a 1a3e 6787 c13d
000003e0: 95f7 01be be8b 5c3d 0994 febd 96a4 813c
000003f0: a71c 343d dc13 723d 21d1 f0bc e306 873d
0.016650844 -0.11122838 -0.19488879 -0.020794827 -0.13886935 0.030907847 0.112367794 0.111768655
0.250526 -0.22525164 -0.03951187 -0.13003013 -0.04441574 -0.32537064 -0.14714406 -0.25057623
-0.13842271 0.06705128 0.047574293 0.047965217 0.075427234 0.054958057 0.05174334 0.052898675
-0.0022665814 -0.03988619 -0.02105638 0.036667965 0.046334296 0.053693797 0.05141965 -0.044549573
-0.06372567 -0.03323851 -0.067029305 0.041592453 -0.19749519 -0.11347997 0.1005343 0.050744306
-0.2814135 -0.18286246 -0.2828379 -0.097540215 -0.019539947 -0.06289802 0.06886832 0.03000598
0.035663296 0.016852653 0.027316391 -0.012962236 -0.07111264 0.058408454 0.07137204 0.044130176
0.029799834 -0.044264317 -0.038314205 -0.048309717 -0.012562433 -0.05798979 0.012766259 -0.051050793
0.110410735 -0.1316527 0.023050755 -0.10469429 0.029548312 -0.07730079 -0.006074529 -0.13665661
-0.43769887 0.030010419 -0.13999243 -0.1688232 -0.13082276 0.27020547 0.2189244 0.003231899
0.020707436 0.004829216 -0.096347064 -0.0063007683 -0.033216346 -0.10060206 -0.0026357854 -0.051143255
0.0661995 -0.037603233 -0.056773935 0.044281393 0.054007296 -0.05447398 0.045332216 0.07691588
-0.035721492 0.014888647 -0.00011855301 0.3617475 -0.35841 0.09405764 -0.026712002 -0.27764347
-0.04269157 -0.2853981 -0.06828361 -0.20849648 -0.0012929813 -0.084305525 0.044382315 -0.14127444
-0.008227833 0.10388636 -0.079315886 -0.042905446 0.103944845 0.022984058 0.013826205 -0.017246174
0.047512453 0.045737002 0.014671842 0.04537394 0.042835694 0.039456807 0.071985215 0.01445262
-0.03491628 0.054244444 0.010004076 -0.022448856 -0.039367244 0.054432325 -0.052538957 0.059826277
0.06052798 -0.046340313 0.0013445514 -0.042175077 0.070351504 0.021178538 -0.03146323 -0.050224483
0.115753025 -0.30087423 -0.23612046 0.20720041 -0.14304335 -0.40742886 -0.12426948 -0.03104115
-0.08686075 -0.04466244 0.02537384 -0.15383816 -0.20333359 0.13990234 0.041230973 -0.19859414
-0.042765073 0.12765503 -0.086315125 0.01012069 -0.05281013 0.06885425 0.03888064 -0.017438658
0.057438314 0.022546737 0.01501119 0.3232407 -0.040461957 0.1194814 0.18750124 -0.17326131
-0.06080654 -0.083016664 -0.27867478 0.07304635 0.2828524 0.0670813 0.13178883 0.115740135
-0.11859878 -0.090482146 -0.19810857 -0.1187081 -0.120639086 0.16976608 -0.09687935 0.116957806
-0.13924783 -0.020803837 -0.17925869 -0.10499872 -0.008019732 0.06242085 0.02051555 -0.012565197
0.022169327 0.05653281 -0.04551564 -0.017377833 0.086864084 0.06218884 -0.04731242 0.02911517
-0.022469522 0.010286073 -0.039162483 0.045681383 0.020673584 0.06796054 0.016930703 -0.012672424
-0.08344746 0.06882949 0.07188347 0.04067196 -0.098342925 -0.061252225 0.063540585 -0.09208138
-0.04043738 -0.01693035 -0.0010950081 -0.07228162 -0.002521312 -0.006187089 0.07179351 0.03252044
0.027160445 0.049756784 0.062297054 0.13766962 0.011577272 0.08126812 -0.09047367 0.07547344
0.12350381 -0.008965366 0.115194656 -0.22523741 0.04193485 -0.025808958 0.15061426 0.09449654
-0.12692101 0.053844206 -0.12430579 0.015825551 0.043972638 0.05910097 -0.029396595 0.065931104

denoiser_2.D.0.weight f4 [32, 1, 3, 3]
00000000: f783 87be 2385 6b3e 0f7e a33d 142e 7bbe
00000010: 7842 f83d bfc8 88be 103c 73bd 74c0 38be
00000020: 38e3 613e b84d 86be faaf ab3b 8aaa 65bd
00000030: 5afd 5bbd cfde 693e 77c5 623c 6cf2 773e
00000040: 8fc2 a53e 705e d0bd 166a e1bd fcb7 143d
00000050: ad2d 7f3b f615 81bc 55de 483d acc1 9f3d
00000060: 411c a13e 3f77 5d3e 34c9 9bbe e825 0f3e
00000070: b0d2 4a3e f2c8 3d3e 57d1 a5bd 17f0 71be
00000080: 4284 fbbd 66fd b1be 772b c6be 84f3 10be
00000090: c02b 00be ecf9 b8be 9ada c1bd 5443 5d3e
000000a0: c272 433e e9c3 5bbe c4bc 8e3d fbd8 073e
000000b0: 2a5f afbe 493c 8bbe d8f0 7fbe d157 67be
000000c0: 003d 9b3e 93ce 93bc ec04 cebc 3a10 443e
000000d0: 76ae 89be f3aa aa3e 6bc5 31bd e6aa d4be
000000e0: 30fc 43be 51f2 55be 6b0a d1bd 09a0 a23e
000000f0: c88e 8a3e 6d09 5d3d 2b4e 913e a6b5 243c
00000100: 1096 59bd 7b29 bdbe ba15 edbc a36e a1be
00000110: 153d 873d 8605 3b3e 9e04 143e fa65 c43d
00000120: f061 87be cc16 223e fc32 bf3e 286c c8be
00000130: 43e6 a2be 7854 453e d1b4 453e 0008 a6be
00000140: 6167 bf3e e649 4abe 4726 cd3d f5dc c3bd
00000150: bf79 dd3c cf5e 943d a556 6d3d 2fe3 8fbc
00000160: c26d 4f3e 8720 c7be f252 123e 7ceb 653e
00000170: 7a58 80be 5cd7 093e 42cf dd3d a785 8abe
00000180: c6bb 273d 813b bb3d dae3 25bd 0296 b23e
00000190: e876 703e fb35 403e a18c 8cbe bb3d 04be
000001a0: d357 40be a806 91be f6a3 523d 4ffc 843e
000001b0: 3280 a8bc e427 26be dcdd 803e bcde 713e
000001c0: aaae 5b3e 7f62 babc 5b29 923d c2e8 b0be
000001d0: fe84 53be 1458 b1bd f749 2ebe 79c3 d43a
000001e0: ebee 013e d56e 51be 0e68 893e 813a ab3e
000001f0: 92ba ddbc f94a 71be 0c2e 583d 5406 2ebd
00000200: 7024 5b3e b6b5 963d 210b d1be fbb6 55bd
00000210: 9f91 d7bd 3aa8 2b3e 17cb 68be 7665 353e
00000220: d7ef b0be 54a6 5bbc be25 93be 9941 823e
00000230: c91e afbe a565 b83e daca c53d 739e a13e
00000240: 4f93 653e a2b5 90be 6223 a2be 2563 823d
00000250: a34f 6cbe b50f 03be 3863 b9bd 16c8 9cbe
00000260: c21a d03e a555 e3bd 15b9 05be a7f0 e1be
00000270: 085f 5a3e f927 5fbe 00e5 a7be 5233 6fbe
00000280: 8047 15bd 0d0f ef3e fbb0 52be 048f 6cbe
00000290: 3907 e6be 670d 6f3e 7165 47bd 464e afbe
000002a0: a0dc ba3e 3ef3 c83d 2a80 fdbe 4dbd 53be
000002b0: 5401 a73e 90a8 66be 7423 35bd 564b f73c
000002c0: 3145 94be 12f4 353e 9019 a2be 8b93 5e3e
000002d0: 961f b23e fa38 80be 3ab6 c0bd 0079 d13d
000002e0: 028c db3d bfbf 99be dcc0 c9be 9097 eebe
000002f0: 8a8c 433e 99bc 8b3e 4ea2 823e 2445 173e
00000300: f0a8 be3d f1d1 c7bd c47b 9cbe 7402 82be
00000310: 97a5 a63d 8eeb 02be bcfe c239 dc9e 273e
00000320: 2f25 adbe 96b4 1ebd 9ba7 893e 84f7 6cbe
00000330: 51d1 8ebd 7564 cebd e3b0 653e 2ce2 8fbe
00000340: fa6e 363e a098 37bd 3af1 6fbe cade c4bd
00000350: 86ea 223e b29f ad3d eabd d23c 101a 893d
00000360: 672c d7be 144c 67be c36c ab3d b3a5 903e
00000370: c098 abbe 6731 5dbd d631 bb3d 2b2c b63e
00000380: f96c b0bd 16ad 46be 75a6 b13c 95eb a43e
00000390: c135 ab3e 9997 debd 0f1e c2be 6d3d aa3e
000003a0: 5784 bebe 6833 a8bd 20e1 aabe 656a 023e
000003b0: 4d0b 6f3e f521 2cbd cae9 c73d 9609 863d
000003c0: f26b 4a3e d1da cf3a 36b8 5d3e 793a 83bc
000003d0: aa37 323e 553c 833d a69d ccbe ac6a 143e
000003e0: 9b8f c43d 7ce0 b4bd 37a4 513c 4498 573e
000003f0: cde1 2dbd 0f12 80be 19b1 533e 4cd5 6f3e
-0.2646787 0.23000006 0.07983028 -0.24529296 0.12122053 -0.26715657 -0.059383452 -0.18042165
0.22059333 -0.2623117 0.005239484 -0.05607084 -0.05370841 0.22838901 0.013841025 0.2421357
0.32375 -0.101742625 -0.110065624 0.036308274 0.0038937137 -0.015757542 0.049040157 0.07800612
0.3146687 0.2162752 -0.30426943 0.13979304 0.19806933 0.18533686 -0.08096569 -0.23626743
-0.122810856 -0.3476364 -0.38705036 -0.14155394 -0.1251669 -0.36128175 -0.09465523 0.21607715
0.19086745 -0.21461453 0.06969598 0.13266365 -0.34252292 -0.2719443 -0.24994218 -0.22592093
0.30319977 -0.018042838 -0.025148831 0.19146815 -0.26890916 0.3333355 -0.043401163 -0.41536635
-0.1913917 -0.20893218 -0.10207065 0.31762722 0.27062058 0.053964067 0.2837995 0.010053074
-0.053121626 -0.3694571 -0.028941024 -0.31529722 0.06603447 0.18263826 0.14454886 0.09589763
-0.26441908 0.15829009 0.37343585 -0.39145017 -0.318163 0.19270504 0.19307257 -0.3242798
0.3738356 -0.19754753 0.100170664 -0.095636286 0.027035592 0.07244646 0.05794396 -0.017564384
0.20256713 -0.38892004 0.14289454 0.22453111 -0.25067502 0.1346106 0.10830547 -0.27055094
0.04095056 0.09142209 -0.0405005 0.34880072 0.23482859 0.18770592 -0.2745104 -0.12914173
-0.18783502 -0.2832539 0.051425897 0.25973746 -0.02056894 -0.16226155 0.25169265 0.23620123
0.21453348 -0.022752045 0.07136794 -0.3455258 -0.20656201 -0.08659378 -0.17020403 0.0016232572
0.12688796 -0.20452435 0.268372 0.33443072 -0.027066503 -0.23563756 0.05277829 -0.042486504
0.21400619 0.07358877 -0.40828803 -0.052176457 -0.10525822 0.16763392 -0.22733723 0.17714486
-0.34557983 -0.013406355 -0.28739733 0.25440672 -0.34203175 0.3601505 0.096578315 0.315662
0.22419475 -0.28263575 -0.3166762 0.063665666 -0.23077254 -0.1279896 -0.090521276 -0.30621403
0.40645415 -0.1110032 -0.13058884 -0.44128916 0.21325314 -0.21792592 -0.327919 -0.23359421
-0.03644514 0.4669117 -0.20575325 -0.23101431 -0.44927385 0.23344956 -0.048680726 -0.34239405
0.3649645 0.0981202 -0.49511844 -0.20677681 0.326182 -0.22525239 -0.044223264 0.03018729
-0.2895904 0.17768887 -0.31660128 0.2173597 0.34789723 -0.2504347 -0.09409757 0.10228157
0.10720064 -0.30029103 -0.39404953 -0.46600008 0.1909658 0.27292326 0.25514454 0.14772469
0.09309566 -0.0975684 -0.30563176 -0.25392497 0.081370525 -0.1278517 0.00037192355 0.16369194
-0.3381743 -0.03874644 0.26885685 -0.23141295 -0.06973518 -0.100777544 0.22430758 -0.28102243
0.17815772 -0.04482329 -0.23431864 -0.09612806 0.15909776 0.08477725 0.025725324 0.06694424
-0.42026064 -0.22587615 0.08370354 0.28251418 -0.33514977 -0.054002192 0.09140365 0.35580572
-0.08614535 -0.19401965 0.021685818 0.32210985 0.33439448 -0.10868759 -0.37913558 0.3324999
-0.37210342 -0.0821293 -0.33374882 0.12735899 0.23344155 -0.04202457 0.097613886 0.06544797
0.1976774 0.0015858059 0.21652302 -0.016019093 0.17404047 0.06407992 -0.39964026 0.14493817
0.09597703 -0.088318795 0.0127954995 0.21054178 -0.04245167 -0.25013778 0.20673026 0.2342121

denoiser_2.D.0.bias f4 [32]
00000000: 8b48 183e 0657 c6bd be48 11be 307c 463e
00000010: c59e 253e 3f35 d23d dc01 e13d c4da 443e
00000020: 53f5 ee3d 445e 0d3e f45a b4bc c980 03be
00000030: 93e3 7c3d 28c0 27bb 41c1 ff3d 5bf6 e23c
00000040: 15d8 1a3e f8fc ef3d 2b65 bebd c99b 4e3e
00000050: 11b1 3dbe 8e8b e73d 6aa4 b33d d9ef b93d
00000060: 8b0b 8abd 7d29 8b3d d994 2a3e 2d5f 1a3d
00000070: 4658 88be c4aa 0fbe aee2 cd3d d07f 24be
0.14871423 -0.09684567 -0.14187905 0.19383311 0.16173847 0.10264062 0.10986683 0.19224077
0.11667886 0.1380549 -0.022016026 -0.12842096 0.06174047 -0.0025596712 0.12488032 0.027705362
0.15121491 0.11718172 -0.0929664 0.20176615 -0.18524577 0.11305915 0.08771594 0.090789504
-0.06740483 0.06795023 0.16658343 0.037688423 -0.26629847 -0.14029986 0.10053001 -0.16064382
